…
I0917 15:12:13.564388 23588 net.cpp:296] The NetState phase (0) differed from the phase (1) specified by a rule in layer svhn
I0917 15:12:13.564411 23588 net.cpp:296] The NetState phase (0) differed from the phase (1) specified by a rule in layer accuracy
I0917 15:12:13.564545 23588 net.cpp:53] Initializing net from parameters: 
name: "SVHN_full"
state {
  phase: TRAIN
  level: 0
  stage: ""
}
layer {
  name: "svhn"
  type: "Data"
  top: "data"
  top: "label"
  include {
    phase: TRAIN
  }
  transform_param {
    mean_file: "./examples/svhn/mean.binaryproto"
  }
  data_param {
    source: "./examples/svhn/svhn_train_lmdb"
    batch_size: 50
    backend: LMDB
  }
}
layer {
  name: "conv1"
  type: "Convolution"
  bottom: "data"
  top: "conv1"
  param {
    lr_mult: 1
  }
  param {
    lr_mult: 2
  }
  convolution_param {
    num_output: 32
    pad: 2
    kernel_size: 5
    stride: 1
    weight_filler {
      type: "gaussian"
      std: 0.0001
    }
    bias_filler {
      type: "constant"
    }
  }
}
layer {
  name: "pool1"
  type: "Pooling"
  bottom: "conv1"
  top: "pool1"
  pooling_param {
    pool: MAX
    kernel_size: 3
    stride: 2
  }
}
layer {
  name: "relu1"
  type: "ReLU"
  bottom: "pool1"
  top: "pool1"
}
layer {
  name: "norm1"
  type: "LRN"
  bottom: "pool1"
  top: "norm1"
  lrn_param {
    local_size: 3
    alpha: 5e-05
    beta: 0.75
    norm_region: WITHIN_CHANNEL
  }
}
layer {
  name: "conv2"
  type: "Convolution"
  bottom: "norm1"
  top: "conv2"
  param {
    lr_mult: 1
  }
  param {
    lr_mult: 2
  }
  convolution_param {
    num_output: 32
    pad: 2
    kernel_size: 5
    stride: 1
    weight_filler {
      type: "gaussian"
      std: 0.01
    }
    bias_filler {
      type: "constant"
    }
  }
}
layer {
  name: "relu2"
  type: "ReLU"
  bottom: "conv2"
  top: "conv2"
}
layer {
  name: "pool2"
  type: "Pooling"
  bottom: "conv2"
  top: "pool2"
  pooling_param {
    pool: AVE
    kernel_size: 3
    stride: 2
  }
}
layer {
  name: "norm2"
  type: "LRN"
  bottom: "pool2"
  top: "norm2"
  lrn_param {
    local_size: 3
    alpha: 5e-05
    beta: 0.75
    norm_region: WITHIN_CHANNEL
  }
}
layer {
  name: "conv3"
  type: "Convolution"
  bottom: "norm2"
  top: "conv3"
  convolution_param {
    num_output: 64
    pad: 2
    kernel_size: 5
    stride: 1
    weight_filler {
      type: "gaussian"
      std: 0.01
    }
    bias_filler {
      type: "constant"
    }
  }
}
layer {
  name: "relu3"
  type: "ReLU"
  bottom: "conv3"
  top: "conv3"
}
layer {
  name: "pool3"
  type: "Pooling"
  bottom: "conv3"
  top: "pool3"
  pooling_param {
    pool: AVE
    kernel_size: 3
    stride: 2
  }
}
layer {
  name: "ip1"
  type: "InnerProduct"
  bottom: "pool3"
  top: "ip1"
  param {
    lr_mult: 1
    decay_mult: 250
  }
  param {
    lr_mult: 2
    decay_mult: 0
  }
  inner_product_param {
    num_output: 10
    weight_filler {
      type: "gaussian"
      std: 0.01
    }
    bias_filler {
      type: "constant"
    }
  }
}
layer {
  name: "loss"
  type: "SoftmaxWithLoss"
  bottom: "ip1"
  bottom: "label"
  top: "loss"
}
I0917 15:12:13.564623 23588 layer_factory.hpp:77] Creating layer svhn
I0917 15:12:13.564738 23588 db_lmdb.cpp:35] Opened lmdb ./examples/svhn/svhn_train_lmdb
I0917 15:12:13.564769 23588 net.cpp:86] Creating Layer svhn
I0917 15:12:13.564797 23588 net.cpp:382] svhn -> data
I0917 15:12:13.564822 23588 net.cpp:382] svhn -> label
I0917 15:12:13.564857 23588 data_transformer.cpp:25] Loading mean file from: ./examples/svhn/mean.binaryproto
I0917 15:12:13.567008 23588 data_layer.cpp:45] output data size: 50,3,32,32
I0917 15:12:13.570793 23588 net.cpp:124] Setting up svhn
I0917 15:12:13.570818 23588 net.cpp:131] Top shape: 50 3 32 32 (153600)
I0917 15:12:13.570825 23588 net.cpp:131] Top shape: 50 (50)
I0917 15:12:13.570829 23588 net.cpp:139] Memory required for data: 614600
I0917 15:12:13.570837 23588 layer_factory.hpp:77] Creating layer conv1
I0917 15:12:13.570858 23588 net.cpp:86] Creating Layer conv1
I0917 15:12:13.570864 23588 net.cpp:408] conv1 <- data
I0917 15:12:13.570879 23588 net.cpp:382] conv1 -> conv1
I0917 15:12:14.073866 23588 net.cpp:124] Setting up conv1
I0917 15:12:14.073889 23588 net.cpp:131] Top shape: 50 32 32 32 (1638400)
I0917 15:12:14.073894 23588 net.cpp:139] Memory required for data: 7168200
I0917 15:12:14.073909 23588 layer_factory.hpp:77] Creating layer pool1
I0917 15:12:14.073920 23588 net.cpp:86] Creating Layer pool1
I0917 15:12:14.073923 23588 net.cpp:408] pool1 <- conv1
I0917 15:12:14.073930 23588 net.cpp:382] pool1 -> pool1
I0917 15:12:14.073982 23588 net.cpp:124] Setting up pool1
I0917 15:12:14.073989 23588 net.cpp:131] Top shape: 50 32 16 16 (409600)
I0917 15:12:14.073992 23588 net.cpp:139] Memory required for data: 8806600
I0917 15:12:14.073994 23588 layer_factory.hpp:77] Creating layer relu1
I0917 15:12:14.073999 23588 net.cpp:86] Creating Layer relu1
I0917 15:12:14.074002 23588 net.cpp:408] relu1 <- pool1
I0917 15:12:14.074005 23588 net.cpp:369] relu1 -> pool1 (in-place)
I0917 15:12:14.074436 23588 net.cpp:124] Setting up relu1
I0917 15:12:14.074446 23588 net.cpp:131] Top shape: 50 32 16 16 (409600)
I0917 15:12:14.074450 23588 net.cpp:139] Memory required for data: 10445000
I0917 15:12:14.074453 23588 layer_factory.hpp:77] Creating layer norm1
I0917 15:12:14.074466 23588 net.cpp:86] Creating Layer norm1
I0917 15:12:14.074471 23588 net.cpp:408] norm1 <- pool1
I0917 15:12:14.074478 23588 net.cpp:382] norm1 -> norm1
I0917 15:12:14.075942 23588 net.cpp:124] Setting up norm1
I0917 15:12:14.075955 23588 net.cpp:131] Top shape: 50 32 16 16 (409600)
I0917 15:12:14.075959 23588 net.cpp:139] Memory required for data: 12083400
I0917 15:12:14.075964 23588 layer_factory.hpp:77] Creating layer conv2
I0917 15:12:14.075975 23588 net.cpp:86] Creating Layer conv2
I0917 15:12:14.075979 23588 net.cpp:408] conv2 <- norm1
I0917 15:12:14.075985 23588 net.cpp:382] conv2 -> conv2
I0917 15:12:14.079035 23588 net.cpp:124] Setting up conv2
I0917 15:12:14.079047 23588 net.cpp:131] Top shape: 50 32 16 16 (409600)
I0917 15:12:14.079051 23588 net.cpp:139] Memory required for data: 13721800
I0917 15:12:14.079059 23588 layer_factory.hpp:77] Creating layer relu2
I0917 15:12:14.079066 23588 net.cpp:86] Creating Layer relu2
I0917 15:12:14.079068 23588 net.cpp:408] relu2 <- conv2
I0917 15:12:14.079073 23588 net.cpp:369] relu2 -> conv2 (in-place)
I0917 15:12:14.079778 23588 net.cpp:124] Setting up relu2
I0917 15:12:14.079789 23588 net.cpp:131] Top shape: 50 32 16 16 (409600)
I0917 15:12:14.079792 23588 net.cpp:139] Memory required for data: 15360200
I0917 15:12:14.079797 23588 layer_factory.hpp:77] Creating layer pool2
I0917 15:12:14.079807 23588 net.cpp:86] Creating Layer pool2
I0917 15:12:14.079810 23588 net.cpp:408] pool2 <- conv2
I0917 15:12:14.079818 23588 net.cpp:382] pool2 -> pool2
I0917 15:12:14.080426 23588 net.cpp:124] Setting up pool2
I0917 15:12:14.080443 23588 net.cpp:131] Top shape: 50 32 8 8 (102400)
I0917 15:12:14.080448 23588 net.cpp:139] Memory required for data: 15769800
I0917 15:12:14.080453 23588 layer_factory.hpp:77] Creating layer norm2
I0917 15:12:14.080466 23588 net.cpp:86] Creating Layer norm2
I0917 15:12:14.080473 23588 net.cpp:408] norm2 <- pool2
I0917 15:12:14.080485 23588 net.cpp:382] norm2 -> norm2
I0917 15:12:14.081189 23588 net.cpp:124] Setting up norm2
I0917 15:12:14.081202 23588 net.cpp:131] Top shape: 50 32 8 8 (102400)
I0917 15:12:14.081205 23588 net.cpp:139] Memory required for data: 16179400
I0917 15:12:14.081208 23588 layer_factory.hpp:77] Creating layer conv3
I0917 15:12:14.081238 23588 net.cpp:86] Creating Layer conv3
I0917 15:12:14.081243 23588 net.cpp:408] conv3 <- norm2
I0917 15:12:14.081250 23588 net.cpp:382] conv3 -> conv3
I0917 15:12:14.084218 23588 net.cpp:124] Setting up conv3
I0917 15:12:14.084234 23588 net.cpp:131] Top shape: 50 64 8 8 (204800)
I0917 15:12:14.084239 23588 net.cpp:139] Memory required for data: 16998600
I0917 15:12:14.084250 23588 layer_factory.hpp:77] Creating layer relu3
I0917 15:12:14.084260 23588 net.cpp:86] Creating Layer relu3
I0917 15:12:14.084267 23588 net.cpp:408] relu3 <- conv3
I0917 15:12:14.084273 23588 net.cpp:369] relu3 -> conv3 (in-place)
I0917 15:12:14.084760 23588 net.cpp:124] Setting up relu3
I0917 15:12:14.084769 23588 net.cpp:131] Top shape: 50 64 8 8 (204800)
I0917 15:12:14.084772 23588 net.cpp:139] Memory required for data: 17817800
I0917 15:12:14.084775 23588 layer_factory.hpp:77] Creating layer pool3
I0917 15:12:14.084780 23588 net.cpp:86] Creating Layer pool3
I0917 15:12:14.084784 23588 net.cpp:408] pool3 <- conv3
I0917 15:12:14.084789 23588 net.cpp:382] pool3 -> pool3
I0917 15:12:14.085304 23588 net.cpp:124] Setting up pool3
I0917 15:12:14.085312 23588 net.cpp:131] Top shape: 50 64 4 4 (51200)
I0917 15:12:14.085315 23588 net.cpp:139] Memory required for data: 18022600
I0917 15:12:14.085319 23588 layer_factory.hpp:77] Creating layer ip1
I0917 15:12:14.085325 23588 net.cpp:86] Creating Layer ip1
I0917 15:12:14.085330 23588 net.cpp:408] ip1 <- pool3
I0917 15:12:14.085335 23588 net.cpp:382] ip1 -> ip1
I0917 15:12:14.086323 23588 net.cpp:124] Setting up ip1
I0917 15:12:14.086335 23588 net.cpp:131] Top shape: 50 10 (500)
I0917 15:12:14.086338 23588 net.cpp:139] Memory required for data: 18024600
I0917 15:12:14.086344 23588 layer_factory.hpp:77] Creating layer loss
I0917 15:12:14.086351 23588 net.cpp:86] Creating Layer loss
I0917 15:12:14.086356 23588 net.cpp:408] loss <- ip1
I0917 15:12:14.086360 23588 net.cpp:408] loss <- label
I0917 15:12:14.086366 23588 net.cpp:382] loss -> loss
I0917 15:12:14.086380 23588 layer_factory.hpp:77] Creating layer loss
…
I0917 15:12:14.087622 23588 solver.cpp:190] Creating test net (#0) specified by net file: examples/svhn/svhn_full_train_test.prototxt
I0917 15:12:14.087649 23588 net.cpp:296] The NetState phase (1) differed from the phase (0) specified by a rule in layer svhn
I0917 15:12:14.087749 23588 net.cpp:53] Initializing net from parameters: 
name: "SVHN_full"
state {
  phase: TEST
}
layer {
  name: "svhn"
  type: "Data"
  top: "data"
  top: "label"
  include {
    phase: TEST
  }
  transform_param {
    mean_file: "./examples/svhn/mean.binaryproto"
  }
  data_param {
    source: "./examples/svhn/svhn_test_lmdb"
    batch_size: 100
    backend: LMDB
  }
}
layer {
  name: "conv1"
  type: "Convolution"
  bottom: "data"
  top: "conv1"
  param {
    lr_mult: 1
  }
  param {
    lr_mult: 2
  }
  convolution_param {
    num_output: 32
    pad: 2
    kernel_size: 5
    stride: 1
    weight_filler {
      type: "gaussian"
      std: 0.0001
    }
    bias_filler {
      type: "constant"
    }
  }
}
layer {
  name: "pool1"
  type: "Pooling"
  bottom: "conv1"
  top: "pool1"
  pooling_param {
    pool: MAX
    kernel_size: 3
    stride: 2
  }
}
layer {
  name: "relu1"
  type: "ReLU"
  bottom: "pool1"
  top: "pool1"
}
layer {
  name: "norm1"
  type: "LRN"
  bottom: "pool1"
  top: "norm1"
  lrn_param {
    local_size: 3
    alpha: 5e-05
    beta: 0.75
    norm_region: WITHIN_CHANNEL
  }
}
layer {
  name: "conv2"
  type: "Convolution"
  bottom: "norm1"
  top: "conv2"
  param {
    lr_mult: 1
  }
  param {
    lr_mult: 2
  }
  convolution_param {
    num_output: 32
    pad: 2
    kernel_size: 5
    stride: 1
    weight_filler {
      type: "gaussian"
      std: 0.01
    }
    bias_filler {
      type: "constant"
    }
  }
}
layer {
  name: "relu2"
  type: "ReLU"
  bottom: "conv2"
  top: "conv2"
}
layer {
  name: "pool2"
  type: "Pooling"
  bottom: "conv2"
  top: "pool2"
  pooling_param {
    pool: AVE
    kernel_size: 3
    stride: 2
  }
}
layer {
  name: "norm2"
  type: "LRN"
  bottom: "pool2"
  top: "norm2"
  lrn_param {
    local_size: 3
    alpha: 5e-05
    beta: 0.75
    norm_region: WITHIN_CHANNEL
  }
}
layer {
  name: "conv3"
  type: "Convolution"
  bottom: "norm2"
  top: "conv3"
  convolution_param {
    num_output: 64
    pad: 2
    kernel_size: 5
    stride: 1
    weight_filler {
      type: "gaussian"
      std: 0.01
    }
    bias_filler {
      type: "constant"
    }
  }
}
layer {
  name: "relu3"
  type: "ReLU"
  bottom: "conv3"
  top: "conv3"
}
layer {
  name: "pool3"
  type: "Pooling"
  bottom: "conv3"
  top: "pool3"
  pooling_param {
    pool: AVE
    kernel_size: 3
    stride: 2
  }
}
layer {
  name: "ip1"
  type: "InnerProduct"
  bottom: "pool3"
  top: "ip1"
  param {
    lr_mult: 1
    decay_mult: 250
  }
  param {
    lr_mult: 2
    decay_mult: 0
  }
  inner_product_param {
    num_output: 10
    weight_filler {
      type: "gaussian"
      std: 0.01
    }
    bias_filler {
      type: "constant"
    }
  }
}
layer {
  name: "accuracy"
  type: "Accuracy"
  bottom: "ip1"
  bottom: "label"
  top: "accuracy"
  include {
    phase: TEST
  }
}
layer {
  name: "loss"
  type: "SoftmaxWithLoss"
  bottom: "ip1"
  bottom: "label"
  top: "loss"
}
I0917 15:12:14.087854 23588 layer_factory.hpp:77] Creating layer svhn
I0917 15:12:14.087910 23588 db_lmdb.cpp:35] Opened lmdb ./examples/svhn/svhn_test_lmdb
I0917 15:12:14.087925 23588 net.cpp:86] Creating Layer svhn
I0917 15:12:14.087934 23588 net.cpp:382] svhn -> data
I0917 15:12:14.087945 23588 net.cpp:382] svhn -> label
I0917 15:12:14.087954 23588 data_transformer.cpp:25] Loading mean file from: ./examples/svhn/mean.binaryproto
I0917 15:12:14.088106 23588 data_layer.cpp:45] output data size: 100,3,32,32
I0917 15:12:14.093343 23588 net.cpp:124] Setting up svhn
I0917 15:12:14.093364 23588 net.cpp:131] Top shape: 100 3 32 32 (307200)
I0917 15:12:14.093367 23588 net.cpp:131] Top shape: 100 (100)
I0917 15:12:14.093370 23588 net.cpp:139] Memory required for data: 1229200
I0917 15:12:14.093374 23588 layer_factory.hpp:77] Creating layer label_svhn_1_split
I0917 15:12:14.093386 23588 net.cpp:86] Creating Layer label_svhn_1_split
I0917 15:12:14.093390 23588 net.cpp:408] label_svhn_1_split <- label
I0917 15:12:14.093396 23588 net.cpp:382] label_svhn_1_split -> label_svhn_1_split_0
I0917 15:12:14.093406 23588 net.cpp:382] label_svhn_1_split -> label_svhn_1_split_1
I0917 15:12:14.093461 23588 net.cpp:124] Setting up label_svhn_1_split
I0917 15:12:14.093466 23588 net.cpp:131] Top shape: 100 (100)
I0917 15:12:14.093470 23588 net.cpp:131] Top shape: 100 (100)
I0917 15:12:14.093473 23588 net.cpp:139] Memory required for data: 1230000
I0917 15:12:14.093490 23588 layer_factory.hpp:77] Creating layer conv1
I0917 15:12:14.093504 23588 net.cpp:86] Creating Layer conv1
I0917 15:12:14.093509 23588 net.cpp:408] conv1 <- data
I0917 15:12:14.093516 23588 net.cpp:382] conv1 -> conv1
I0917 15:12:14.096478 23588 net.cpp:124] Setting up conv1
I0917 15:12:14.096494 23588 net.cpp:131] Top shape: 100 32 32 32 (3276800)
I0917 15:12:14.096498 23588 net.cpp:139] Memory required for data: 14337200
I0917 15:12:14.096511 23588 layer_factory.hpp:77] Creating layer pool1
I0917 15:12:14.096520 23588 net.cpp:86] Creating Layer pool1
I0917 15:12:14.096529 23588 net.cpp:408] pool1 <- conv1
I0917 15:12:14.096536 23588 net.cpp:382] pool1 -> pool1
I0917 15:12:14.096580 23588 net.cpp:124] Setting up pool1
I0917 15:12:14.096586 23588 net.cpp:131] Top shape: 100 32 16 16 (819200)
I0917 15:12:14.096590 23588 net.cpp:139] Memory required for data: 17614000
I0917 15:12:14.096593 23588 layer_factory.hpp:77] Creating layer relu1
I0917 15:12:14.096603 23588 net.cpp:86] Creating Layer relu1
I0917 15:12:14.096608 23588 net.cpp:408] relu1 <- pool1
I0917 15:12:14.096612 23588 net.cpp:369] relu1 -> pool1 (in-place)
I0917 15:12:14.097906 23588 net.cpp:124] Setting up relu1
I0917 15:12:14.097918 23588 net.cpp:131] Top shape: 100 32 16 16 (819200)
I0917 15:12:14.097923 23588 net.cpp:139] Memory required for data: 20890800
I0917 15:12:14.097928 23588 layer_factory.hpp:77] Creating layer norm1
I0917 15:12:14.097940 23588 net.cpp:86] Creating Layer norm1
I0917 15:12:14.097946 23588 net.cpp:408] norm1 <- pool1
I0917 15:12:14.097955 23588 net.cpp:382] norm1 -> norm1
I0917 15:12:14.099267 23588 net.cpp:124] Setting up norm1
I0917 15:12:14.099278 23588 net.cpp:131] Top shape: 100 32 16 16 (819200)
I0917 15:12:14.099282 23588 net.cpp:139] Memory required for data: 24167600
I0917 15:12:14.099287 23588 layer_factory.hpp:77] Creating layer conv2
I0917 15:12:14.099301 23588 net.cpp:86] Creating Layer conv2
I0917 15:12:14.099306 23588 net.cpp:408] conv2 <- norm1
I0917 15:12:14.099314 23588 net.cpp:382] conv2 -> conv2
I0917 15:12:14.102587 23588 net.cpp:124] Setting up conv2
I0917 15:12:14.102602 23588 net.cpp:131] Top shape: 100 32 16 16 (819200)
I0917 15:12:14.102605 23588 net.cpp:139] Memory required for data: 27444400
I0917 15:12:14.102618 23588 layer_factory.hpp:77] Creating layer relu2
I0917 15:12:14.102627 23588 net.cpp:86] Creating Layer relu2
I0917 15:12:14.102630 23588 net.cpp:408] relu2 <- conv2
I0917 15:12:14.102638 23588 net.cpp:369] relu2 -> conv2 (in-place)
I0917 15:12:14.103531 23588 net.cpp:124] Setting up relu2
I0917 15:12:14.103544 23588 net.cpp:131] Top shape: 100 32 16 16 (819200)
I0917 15:12:14.103549 23588 net.cpp:139] Memory required for data: 30721200
I0917 15:12:14.103554 23588 layer_factory.hpp:77] Creating layer pool2
I0917 15:12:14.103564 23588 net.cpp:86] Creating Layer pool2
I0917 15:12:14.103569 23588 net.cpp:408] pool2 <- conv2
I0917 15:12:14.103575 23588 net.cpp:382] pool2 -> pool2
I0917 15:12:14.104151 23588 net.cpp:124] Setting up pool2
I0917 15:12:14.104162 23588 net.cpp:131] Top shape: 100 32 8 8 (204800)
I0917 15:12:14.104166 23588 net.cpp:139] Memory required for data: 31540400
I0917 15:12:14.104169 23588 layer_factory.hpp:77] Creating layer norm2
I0917 15:12:14.104178 23588 net.cpp:86] Creating Layer norm2
I0917 15:12:14.104182 23588 net.cpp:408] norm2 <- pool2
I0917 15:12:14.104192 23588 net.cpp:382] norm2 -> norm2
I0917 15:12:14.104887 23588 net.cpp:124] Setting up norm2
I0917 15:12:14.104900 23588 net.cpp:131] Top shape: 100 32 8 8 (204800)
I0917 15:12:14.104903 23588 net.cpp:139] Memory required for data: 32359600
I0917 15:12:14.104908 23588 layer_factory.hpp:77] Creating layer conv3
I0917 15:12:14.104923 23588 net.cpp:86] Creating Layer conv3
I0917 15:12:14.104928 23588 net.cpp:408] conv3 <- norm2
I0917 15:12:14.104935 23588 net.cpp:382] conv3 -> conv3
I0917 15:12:14.109076 23588 net.cpp:124] Setting up conv3
I0917 15:12:14.109095 23588 net.cpp:131] Top shape: 100 64 8 8 (409600)
I0917 15:12:14.109099 23588 net.cpp:139] Memory required for data: 33998000
I0917 15:12:14.109127 23588 layer_factory.hpp:77] Creating layer relu3
I0917 15:12:14.109135 23588 net.cpp:86] Creating Layer relu3
I0917 15:12:14.109139 23588 net.cpp:408] relu3 <- conv3
I0917 15:12:14.109145 23588 net.cpp:369] relu3 -> conv3 (in-place)
I0917 15:12:14.109735 23588 net.cpp:124] Setting up relu3
I0917 15:12:14.109748 23588 net.cpp:131] Top shape: 100 64 8 8 (409600)
I0917 15:12:14.109751 23588 net.cpp:139] Memory required for data: 35636400
I0917 15:12:14.109755 23588 layer_factory.hpp:77] Creating layer pool3
I0917 15:12:14.109762 23588 net.cpp:86] Creating Layer pool3
I0917 15:12:14.109766 23588 net.cpp:408] pool3 <- conv3
I0917 15:12:14.109773 23588 net.cpp:382] pool3 -> pool3
I0917 15:12:14.110842 23588 net.cpp:124] Setting up pool3
I0917 15:12:14.110855 23588 net.cpp:131] Top shape: 100 64 4 4 (102400)
I0917 15:12:14.110858 23588 net.cpp:139] Memory required for data: 36046000
I0917 15:12:14.110862 23588 layer_factory.hpp:77] Creating layer ip1
I0917 15:12:14.110872 23588 net.cpp:86] Creating Layer ip1
I0917 15:12:14.110877 23588 net.cpp:408] ip1 <- pool3
I0917 15:12:14.110886 23588 net.cpp:382] ip1 -> ip1
I0917 15:12:14.111151 23588 net.cpp:124] Setting up ip1
I0917 15:12:14.111161 23588 net.cpp:131] Top shape: 100 10 (1000)
I0917 15:12:14.111165 23588 net.cpp:139] Memory required for data: 36050000
I0917 15:12:14.111171 23588 layer_factory.hpp:77] Creating layer ip1_ip1_0_split
I0917 15:12:14.111178 23588 net.cpp:86] Creating Layer ip1_ip1_0_split
I0917 15:12:14.111184 23588 net.cpp:408] ip1_ip1_0_split <- ip1
I0917 15:12:14.111194 23588 net.cpp:382] ip1_ip1_0_split -> ip1_ip1_0_split_0
I0917 15:12:14.111205 23588 net.cpp:382] ip1_ip1_0_split -> ip1_ip1_0_split_1
I0917 15:12:14.111269 23588 net.cpp:124] Setting up ip1_ip1_0_split
I0917 15:12:14.111279 23588 net.cpp:131] Top shape: 100 10 (1000)
I0917 15:12:14.111286 23588 net.cpp:131] Top shape: 100 10 (1000)
I0917 15:12:14.111290 23588 net.cpp:139] Memory required for data: 36058000
I0917 15:12:14.111295 23588 layer_factory.hpp:77] Creating layer accuracy
I0917 15:12:14.111304 23588 net.cpp:86] Creating Layer accuracy
I0917 15:12:14.111310 23588 net.cpp:408] accuracy <- ip1_ip1_0_split_0
I0917 15:12:14.111315 23588 net.cpp:408] accuracy <- label_svhn_1_split_0
I0917 15:12:14.111327 23588 net.cpp:382] accuracy -> accuracy
…
