…
I0917 13:51:16.334971 22701 net.cpp:296] The NetState phase (0) differed from the phase (1) specified by a rule in layer svhn
I0917 13:51:16.334990 22701 net.cpp:296] The NetState phase (0) differed from the phase (1) specified by a rule in layer accuracy
I0917 13:51:16.335093 22701 net.cpp:53] Initializing net from parameters: 
name: "SVHN_full"
state {
  phase: TRAIN
  level: 0
  stage: ""
}
layer {
  name: "svhn"
  type: "Data"
  top: "data"
  top: "label"
  include {
    phase: TRAIN
  }
  transform_param {
    mean_file: "./examples/svhn/mean.binaryproto"
  }
  data_param {
    source: "./examples/svhn/svhn_train_lmdb"
    batch_size: 50
    backend: LMDB
  }
}
layer {
  name: "conv1"
  type: "Convolution"
  bottom: "data"
  top: "conv1"
  param {
    lr_mult: 1
  }
  param {
    lr_mult: 2
  }
  convolution_param {
    num_output: 32
    pad: 2
    kernel_size: 5
    stride: 1
    weight_filler {
      type: "gaussian"
      std: 0.0001
    }
    bias_filler {
      type: "constant"
    }
  }
}
layer {
  name: "pool1"
  type: "Pooling"
  bottom: "conv1"
  top: "pool1"
  pooling_param {
    pool: MAX
    kernel_size: 3
    stride: 2
  }
}
layer {
  name: "relu1"
  type: "ReLU"
  bottom: "pool1"
  top: "pool1"
}
layer {
  name: "norm1"
  type: "LRN"
  bottom: "pool1"
  top: "norm1"
  lrn_param {
    local_size: 3
    alpha: 5e-05
    beta: 0.75
    norm_region: WITHIN_CHANNEL
  }
}
layer {
  name: "conv2"
  type: "Convolution"
  bottom: "norm1"
  top: "conv2"
  param {
    lr_mult: 1
  }
  param {
    lr_mult: 2
  }
  convolution_param {
    num_output: 32
    pad: 2
    kernel_size: 5
    stride: 1
    weight_filler {
      type: "gaussian"
      std: 0.01
    }
    bias_filler {
      type: "constant"
    }
  }
}
layer {
  name: "relu2"
  type: "ReLU"
  bottom: "conv2"
  top: "conv2"
}
layer {
  name: "pool2"
  type: "Pooling"
  bottom: "conv2"
  top: "pool2"
  pooling_param {
    pool: AVE
    kernel_size: 3
    stride: 2
  }
}
layer {
  name: "norm2"
  type: "LRN"
  bottom: "pool2"
  top: "norm2"
  lrn_param {
    local_size: 3
    alpha: 5e-05
    beta: 0.75
    norm_region: WITHIN_CHANNEL
  }
}
layer {
  name: "conv3"
  type: "Convolution"
  bottom: "norm2"
  top: "conv3"
  convolution_param {
    num_output: 64
    pad: 2
    kernel_size: 5
    stride: 1
    weight_filler {
      type: "gaussian"
      std: 0.01
    }
    bias_filler {
      type: "constant"
    }
  }
}
layer {
  name: "relu3"
  type: "ReLU"
  bottom: "conv3"
  top: "conv3"
}
layer {
  name: "pool3"
  type: "Pooling"
  bottom: "conv3"
  top: "pool3"
  pooling_param {
    pool: AVE
    kernel_size: 3
    stride: 2
  }
}
layer {
  name: "ip1"
  type: "InnerProduct"
  bottom: "pool3"
  top: "ip1"
  param {
    lr_mult: 1
    decay_mult: 250
  }
  param {
    lr_mult: 2
    decay_mult: 0
  }
  inner_product_param {
    num_output: 10
    weight_filler {
      type: "gaussian"
      std: 0.01
    }
    bias_filler {
      type: "constant"
    }
  }
}
layer {
  name: "loss"
  type: "SoftmaxWithLoss"
  bottom: "ip1"
  bottom: "label"
  top: "loss"
}
I0917 13:51:16.335175 22701 layer_factory.hpp:77] Creating layer svhn
I0917 13:51:16.335290 22701 db_lmdb.cpp:35] Opened lmdb ./examples/svhn/svhn_train_lmdb
I0917 13:51:16.335321 22701 net.cpp:86] Creating Layer svhn
I0917 13:51:16.335333 22701 net.cpp:382] svhn -> data
I0917 13:51:16.335353 22701 net.cpp:382] svhn -> label
I0917 13:51:16.335379 22701 data_transformer.cpp:25] Loading mean file from: ./examples/svhn/mean.binaryproto
I0917 13:51:16.337189 22701 data_layer.cpp:45] output data size: 50,3,32,32
I0917 13:51:16.340561 22701 net.cpp:124] Setting up svhn
I0917 13:51:16.340587 22701 net.cpp:131] Top shape: 50 3 32 32 (153600)
I0917 13:51:16.340591 22701 net.cpp:131] Top shape: 50 (50)
I0917 13:51:16.340595 22701 net.cpp:139] Memory required for data: 614600
I0917 13:51:16.340600 22701 layer_factory.hpp:77] Creating layer conv1
I0917 13:51:16.340620 22701 net.cpp:86] Creating Layer conv1
I0917 13:51:16.340626 22701 net.cpp:408] conv1 <- data
I0917 13:51:16.340636 22701 net.cpp:382] conv1 -> conv1
I0917 13:51:16.842149 22701 net.cpp:124] Setting up conv1
I0917 13:51:16.842180 22701 net.cpp:131] Top shape: 50 32 32 32 (1638400)
I0917 13:51:16.842183 22701 net.cpp:139] Memory required for data: 7168200
I0917 13:51:16.842208 22701 layer_factory.hpp:77] Creating layer pool1
I0917 13:51:16.842227 22701 net.cpp:86] Creating Layer pool1
I0917 13:51:16.842236 22701 net.cpp:408] pool1 <- conv1
I0917 13:51:16.842243 22701 net.cpp:382] pool1 -> pool1
I0917 13:51:16.842303 22701 net.cpp:124] Setting up pool1
I0917 13:51:16.842310 22701 net.cpp:131] Top shape: 50 32 16 16 (409600)
I0917 13:51:16.842314 22701 net.cpp:139] Memory required for data: 8806600
I0917 13:51:16.842315 22701 layer_factory.hpp:77] Creating layer relu1
I0917 13:51:16.842324 22701 net.cpp:86] Creating Layer relu1
I0917 13:51:16.842326 22701 net.cpp:408] relu1 <- pool1
I0917 13:51:16.842330 22701 net.cpp:369] relu1 -> pool1 (in-place)
I0917 13:51:16.842865 22701 net.cpp:124] Setting up relu1
I0917 13:51:16.842876 22701 net.cpp:131] Top shape: 50 32 16 16 (409600)
I0917 13:51:16.842880 22701 net.cpp:139] Memory required for data: 10445000
I0917 13:51:16.842882 22701 layer_factory.hpp:77] Creating layer norm1
I0917 13:51:16.842893 22701 net.cpp:86] Creating Layer norm1
I0917 13:51:16.842896 22701 net.cpp:408] norm1 <- pool1
I0917 13:51:16.842901 22701 net.cpp:382] norm1 -> norm1
I0917 13:51:16.844686 22701 net.cpp:124] Setting up norm1
I0917 13:51:16.844702 22701 net.cpp:131] Top shape: 50 32 16 16 (409600)
I0917 13:51:16.844705 22701 net.cpp:139] Memory required for data: 12083400
I0917 13:51:16.844708 22701 layer_factory.hpp:77] Creating layer conv2
I0917 13:51:16.844719 22701 net.cpp:86] Creating Layer conv2
I0917 13:51:16.844723 22701 net.cpp:408] conv2 <- norm1
I0917 13:51:16.844732 22701 net.cpp:382] conv2 -> conv2
I0917 13:51:16.848724 22701 net.cpp:124] Setting up conv2
I0917 13:51:16.848745 22701 net.cpp:131] Top shape: 50 32 16 16 (409600)
I0917 13:51:16.848749 22701 net.cpp:139] Memory required for data: 13721800
I0917 13:51:16.848764 22701 layer_factory.hpp:77] Creating layer relu2
I0917 13:51:16.848775 22701 net.cpp:86] Creating Layer relu2
I0917 13:51:16.848781 22701 net.cpp:408] relu2 <- conv2
I0917 13:51:16.848788 22701 net.cpp:369] relu2 -> conv2 (in-place)
I0917 13:51:16.849623 22701 net.cpp:124] Setting up relu2
I0917 13:51:16.849637 22701 net.cpp:131] Top shape: 50 32 16 16 (409600)
I0917 13:51:16.849639 22701 net.cpp:139] Memory required for data: 15360200
I0917 13:51:16.849643 22701 layer_factory.hpp:77] Creating layer pool2
I0917 13:51:16.849653 22701 net.cpp:86] Creating Layer pool2
I0917 13:51:16.849658 22701 net.cpp:408] pool2 <- conv2
I0917 13:51:16.849668 22701 net.cpp:382] pool2 -> pool2
I0917 13:51:16.850198 22701 net.cpp:124] Setting up pool2
I0917 13:51:16.850208 22701 net.cpp:131] Top shape: 50 32 8 8 (102400)
I0917 13:51:16.850210 22701 net.cpp:139] Memory required for data: 15769800
I0917 13:51:16.850214 22701 layer_factory.hpp:77] Creating layer norm2
I0917 13:51:16.850222 22701 net.cpp:86] Creating Layer norm2
I0917 13:51:16.850225 22701 net.cpp:408] norm2 <- pool2
I0917 13:51:16.850231 22701 net.cpp:382] norm2 -> norm2
I0917 13:51:16.850847 22701 net.cpp:124] Setting up norm2
I0917 13:51:16.850857 22701 net.cpp:131] Top shape: 50 32 8 8 (102400)
I0917 13:51:16.850859 22701 net.cpp:139] Memory required for data: 16179400
I0917 13:51:16.850862 22701 layer_factory.hpp:77] Creating layer conv3
I0917 13:51:16.850889 22701 net.cpp:86] Creating Layer conv3
I0917 13:51:16.850894 22701 net.cpp:408] conv3 <- norm2
I0917 13:51:16.850899 22701 net.cpp:382] conv3 -> conv3
I0917 13:51:16.853709 22701 net.cpp:124] Setting up conv3
I0917 13:51:16.853723 22701 net.cpp:131] Top shape: 50 64 8 8 (204800)
I0917 13:51:16.853725 22701 net.cpp:139] Memory required for data: 16998600
I0917 13:51:16.853739 22701 layer_factory.hpp:77] Creating layer relu3
I0917 13:51:16.853749 22701 net.cpp:86] Creating Layer relu3
I0917 13:51:16.853754 22701 net.cpp:408] relu3 <- conv3
I0917 13:51:16.853758 22701 net.cpp:369] relu3 -> conv3 (in-place)
I0917 13:51:16.854260 22701 net.cpp:124] Setting up relu3
I0917 13:51:16.854272 22701 net.cpp:131] Top shape: 50 64 8 8 (204800)
I0917 13:51:16.854275 22701 net.cpp:139] Memory required for data: 17817800
I0917 13:51:16.854279 22701 layer_factory.hpp:77] Creating layer pool3
I0917 13:51:16.854285 22701 net.cpp:86] Creating Layer pool3
I0917 13:51:16.854288 22701 net.cpp:408] pool3 <- conv3
I0917 13:51:16.854296 22701 net.cpp:382] pool3 -> pool3
I0917 13:51:16.854795 22701 net.cpp:124] Setting up pool3
I0917 13:51:16.854804 22701 net.cpp:131] Top shape: 50 64 4 4 (51200)
I0917 13:51:16.854807 22701 net.cpp:139] Memory required for data: 18022600
I0917 13:51:16.854810 22701 layer_factory.hpp:77] Creating layer ip1
I0917 13:51:16.854820 22701 net.cpp:86] Creating Layer ip1
I0917 13:51:16.854826 22701 net.cpp:408] ip1 <- pool3
I0917 13:51:16.854831 22701 net.cpp:382] ip1 -> ip1
I0917 13:51:16.855799 22701 net.cpp:124] Setting up ip1
I0917 13:51:16.855813 22701 net.cpp:131] Top shape: 50 10 (500)
I0917 13:51:16.855815 22701 net.cpp:139] Memory required for data: 18024600
I0917 13:51:16.855823 22701 layer_factory.hpp:77] Creating layer loss
I0917 13:51:16.855832 22701 net.cpp:86] Creating Layer loss
I0917 13:51:16.855839 22701 net.cpp:408] loss <- ip1
I0917 13:51:16.855844 22701 net.cpp:408] loss <- label
I0917 13:51:16.855849 22701 net.cpp:382] loss -> loss
I0917 13:51:16.855862 22701 layer_factory.hpp:77] Creating layer loss
…
I0917 13:51:16.857049 22701 solver.cpp:190] Creating test net (#0) specified by net file: examples/svhn/svhn_full_train_test.prototxt
I0917 13:51:16.857077 22701 net.cpp:296] The NetState phase (1) differed from the phase (0) specified by a rule in layer svhn
I0917 13:51:16.857182 22701 net.cpp:53] Initializing net from parameters: 
name: "SVHN_full"
state {
  phase: TEST
}
layer {
  name: "svhn"
  type: "Data"
  top: "data"
  top: "label"
  include {
    phase: TEST
  }
  transform_param {
    mean_file: "./examples/svhn/mean.binaryproto"
  }
  data_param {
    source: "./examples/svhn/svhn_test_lmdb"
    batch_size: 100
    backend: LMDB
  }
}
layer {
  name: "conv1"
  type: "Convolution"
  bottom: "data"
  top: "conv1"
  param {
    lr_mult: 1
  }
  param {
    lr_mult: 2
  }
  convolution_param {
    num_output: 32
    pad: 2
    kernel_size: 5
    stride: 1
    weight_filler {
      type: "gaussian"
      std: 0.0001
    }
    bias_filler {
      type: "constant"
    }
  }
}
layer {
  name: "pool1"
  type: "Pooling"
  bottom: "conv1"
  top: "pool1"
  pooling_param {
    pool: MAX
    kernel_size: 3
    stride: 2
  }
}
layer {
  name: "relu1"
  type: "ReLU"
  bottom: "pool1"
  top: "pool1"
}
layer {
  name: "norm1"
  type: "LRN"
  bottom: "pool1"
  top: "norm1"
  lrn_param {
    local_size: 3
    alpha: 5e-05
    beta: 0.75
    norm_region: WITHIN_CHANNEL
  }
}
layer {
  name: "conv2"
  type: "Convolution"
  bottom: "norm1"
  top: "conv2"
  param {
    lr_mult: 1
  }
  param {
    lr_mult: 2
  }
  convolution_param {
    num_output: 32
    pad: 2
    kernel_size: 5
    stride: 1
    weight_filler {
      type: "gaussian"
      std: 0.01
    }
    bias_filler {
      type: "constant"
    }
  }
}
layer {
  name: "relu2"
  type: "ReLU"
  bottom: "conv2"
  top: "conv2"
}
layer {
  name: "pool2"
  type: "Pooling"
  bottom: "conv2"
  top: "pool2"
  pooling_param {
    pool: AVE
    kernel_size: 3
    stride: 2
  }
}
layer {
  name: "norm2"
  type: "LRN"
  bottom: "pool2"
  top: "norm2"
  lrn_param {
    local_size: 3
    alpha: 5e-05
    beta: 0.75
    norm_region: WITHIN_CHANNEL
  }
}
layer {
  name: "conv3"
  type: "Convolution"
  bottom: "norm2"
  top: "conv3"
  convolution_param {
    num_output: 64
    pad: 2
    kernel_size: 5
    stride: 1
    weight_filler {
      type: "gaussian"
      std: 0.01
    }
    bias_filler {
      type: "constant"
    }
  }
}
layer {
  name: "relu3"
  type: "ReLU"
  bottom: "conv3"
  top: "conv3"
}
layer {
  name: "pool3"
  type: "Pooling"
  bottom: "conv3"
  top: "pool3"
  pooling_param {
    pool: AVE
    kernel_size: 3
    stride: 2
  }
}
layer {
  name: "ip1"
  type: "InnerProduct"
  bottom: "pool3"
  top: "ip1"
  param {
    lr_mult: 1
    decay_mult: 250
  }
  param {
    lr_mult: 2
    decay_mult: 0
  }
  inner_product_param {
    num_output: 10
    weight_filler {
      type: "gaussian"
      std: 0.01
    }
    bias_filler {
      type: "constant"
    }
  }
}
layer {
  name: "accuracy"
  type: "Accuracy"
  bottom: "ip1"
  bottom: "label"
  top: "accuracy"
  include {
    phase: TEST
  }
}
layer {
  name: "loss"
  type: "SoftmaxWithLoss"
  bottom: "ip1"
  bottom: "label"
  top: "loss"
}
I0917 13:51:16.857271 22701 layer_factory.hpp:77] Creating layer svhn
I0917 13:51:16.857323 22701 db_lmdb.cpp:35] Opened lmdb ./examples/svhn/svhn_test_lmdb
I0917 13:51:16.857339 22701 net.cpp:86] Creating Layer svhn
I0917 13:51:16.857349 22701 net.cpp:382] svhn -> data
I0917 13:51:16.857359 22701 net.cpp:382] svhn -> label
I0917 13:51:16.857367 22701 data_transformer.cpp:25] Loading mean file from: ./examples/svhn/mean.binaryproto
I0917 13:51:16.857519 22701 data_layer.cpp:45] output data size: 100,3,32,32
I0917 13:51:16.863353 22701 net.cpp:124] Setting up svhn
I0917 13:51:16.863373 22701 net.cpp:131] Top shape: 100 3 32 32 (307200)
I0917 13:51:16.863379 22701 net.cpp:131] Top shape: 100 (100)
I0917 13:51:16.863381 22701 net.cpp:139] Memory required for data: 1229200
I0917 13:51:16.863385 22701 layer_factory.hpp:77] Creating layer label_svhn_1_split
I0917 13:51:16.863397 22701 net.cpp:86] Creating Layer label_svhn_1_split
I0917 13:51:16.863401 22701 net.cpp:408] label_svhn_1_split <- label
I0917 13:51:16.863407 22701 net.cpp:382] label_svhn_1_split -> label_svhn_1_split_0
I0917 13:51:16.863416 22701 net.cpp:382] label_svhn_1_split -> label_svhn_1_split_1
I0917 13:51:16.863478 22701 net.cpp:124] Setting up label_svhn_1_split
I0917 13:51:16.863487 22701 net.cpp:131] Top shape: 100 (100)
I0917 13:51:16.863490 22701 net.cpp:131] Top shape: 100 (100)
I0917 13:51:16.863492 22701 net.cpp:139] Memory required for data: 1230000
I0917 13:51:16.863512 22701 layer_factory.hpp:77] Creating layer conv1
I0917 13:51:16.863529 22701 net.cpp:86] Creating Layer conv1
I0917 13:51:16.863534 22701 net.cpp:408] conv1 <- data
I0917 13:51:16.863543 22701 net.cpp:382] conv1 -> conv1
I0917 13:51:16.866585 22701 net.cpp:124] Setting up conv1
I0917 13:51:16.866602 22701 net.cpp:131] Top shape: 100 32 32 32 (3276800)
I0917 13:51:16.866605 22701 net.cpp:139] Memory required for data: 14337200
I0917 13:51:16.866616 22701 layer_factory.hpp:77] Creating layer pool1
I0917 13:51:16.866623 22701 net.cpp:86] Creating Layer pool1
I0917 13:51:16.866627 22701 net.cpp:408] pool1 <- conv1
I0917 13:51:16.866633 22701 net.cpp:382] pool1 -> pool1
I0917 13:51:16.866677 22701 net.cpp:124] Setting up pool1
I0917 13:51:16.866684 22701 net.cpp:131] Top shape: 100 32 16 16 (819200)
I0917 13:51:16.866688 22701 net.cpp:139] Memory required for data: 17614000
I0917 13:51:16.866691 22701 layer_factory.hpp:77] Creating layer relu1
I0917 13:51:16.866701 22701 net.cpp:86] Creating Layer relu1
I0917 13:51:16.866706 22701 net.cpp:408] relu1 <- pool1
I0917 13:51:16.866713 22701 net.cpp:369] relu1 -> pool1 (in-place)
I0917 13:51:16.868073 22701 net.cpp:124] Setting up relu1
I0917 13:51:16.868088 22701 net.cpp:131] Top shape: 100 32 16 16 (819200)
I0917 13:51:16.868090 22701 net.cpp:139] Memory required for data: 20890800
I0917 13:51:16.868093 22701 layer_factory.hpp:77] Creating layer norm1
I0917 13:51:16.868103 22701 net.cpp:86] Creating Layer norm1
I0917 13:51:16.868108 22701 net.cpp:408] norm1 <- pool1
I0917 13:51:16.868113 22701 net.cpp:382] norm1 -> norm1
I0917 13:51:16.869490 22701 net.cpp:124] Setting up norm1
I0917 13:51:16.869503 22701 net.cpp:131] Top shape: 100 32 16 16 (819200)
I0917 13:51:16.869506 22701 net.cpp:139] Memory required for data: 24167600
I0917 13:51:16.869509 22701 layer_factory.hpp:77] Creating layer conv2
I0917 13:51:16.869519 22701 net.cpp:86] Creating Layer conv2
I0917 13:51:16.869524 22701 net.cpp:408] conv2 <- norm1
I0917 13:51:16.869530 22701 net.cpp:382] conv2 -> conv2
I0917 13:51:16.872817 22701 net.cpp:124] Setting up conv2
I0917 13:51:16.872831 22701 net.cpp:131] Top shape: 100 32 16 16 (819200)
I0917 13:51:16.872835 22701 net.cpp:139] Memory required for data: 27444400
I0917 13:51:16.872843 22701 layer_factory.hpp:77] Creating layer relu2
I0917 13:51:16.872849 22701 net.cpp:86] Creating Layer relu2
I0917 13:51:16.872853 22701 net.cpp:408] relu2 <- conv2
I0917 13:51:16.872858 22701 net.cpp:369] relu2 -> conv2 (in-place)
I0917 13:51:16.873770 22701 net.cpp:124] Setting up relu2
I0917 13:51:16.873785 22701 net.cpp:131] Top shape: 100 32 16 16 (819200)
I0917 13:51:16.873787 22701 net.cpp:139] Memory required for data: 30721200
I0917 13:51:16.873790 22701 layer_factory.hpp:77] Creating layer pool2
I0917 13:51:16.873797 22701 net.cpp:86] Creating Layer pool2
I0917 13:51:16.873800 22701 net.cpp:408] pool2 <- conv2
I0917 13:51:16.873807 22701 net.cpp:382] pool2 -> pool2
I0917 13:51:16.874358 22701 net.cpp:124] Setting up pool2
I0917 13:51:16.874369 22701 net.cpp:131] Top shape: 100 32 8 8 (204800)
I0917 13:51:16.874372 22701 net.cpp:139] Memory required for data: 31540400
I0917 13:51:16.874375 22701 layer_factory.hpp:77] Creating layer norm2
I0917 13:51:16.874385 22701 net.cpp:86] Creating Layer norm2
I0917 13:51:16.874392 22701 net.cpp:408] norm2 <- pool2
I0917 13:51:16.874399 22701 net.cpp:382] norm2 -> norm2
I0917 13:51:16.875037 22701 net.cpp:124] Setting up norm2
I0917 13:51:16.875047 22701 net.cpp:131] Top shape: 100 32 8 8 (204800)
I0917 13:51:16.875051 22701 net.cpp:139] Memory required for data: 32359600
I0917 13:51:16.875054 22701 layer_factory.hpp:77] Creating layer conv3
I0917 13:51:16.875067 22701 net.cpp:86] Creating Layer conv3
I0917 13:51:16.875072 22701 net.cpp:408] conv3 <- norm2
I0917 13:51:16.875079 22701 net.cpp:382] conv3 -> conv3
I0917 13:51:16.878134 22701 net.cpp:124] Setting up conv3
I0917 13:51:16.878149 22701 net.cpp:131] Top shape: 100 64 8 8 (409600)
I0917 13:51:16.878152 22701 net.cpp:139] Memory required for data: 33998000
I0917 13:51:16.878175 22701 layer_factory.hpp:77] Creating layer relu3
I0917 13:51:16.878185 22701 net.cpp:86] Creating Layer relu3
I0917 13:51:16.878190 22701 net.cpp:408] relu3 <- conv3
I0917 13:51:16.878195 22701 net.cpp:369] relu3 -> conv3 (in-place)
I0917 13:51:16.878731 22701 net.cpp:124] Setting up relu3
I0917 13:51:16.878742 22701 net.cpp:131] Top shape: 100 64 8 8 (409600)
I0917 13:51:16.878746 22701 net.cpp:139] Memory required for data: 35636400
I0917 13:51:16.878749 22701 layer_factory.hpp:77] Creating layer pool3
I0917 13:51:16.878754 22701 net.cpp:86] Creating Layer pool3
I0917 13:51:16.878759 22701 net.cpp:408] pool3 <- conv3
I0917 13:51:16.878765 22701 net.cpp:382] pool3 -> pool3
I0917 13:51:16.879689 22701 net.cpp:124] Setting up pool3
I0917 13:51:16.879701 22701 net.cpp:131] Top shape: 100 64 4 4 (102400)
I0917 13:51:16.879704 22701 net.cpp:139] Memory required for data: 36046000
I0917 13:51:16.879709 22701 layer_factory.hpp:77] Creating layer ip1
I0917 13:51:16.879719 22701 net.cpp:86] Creating Layer ip1
I0917 13:51:16.879724 22701 net.cpp:408] ip1 <- pool3
I0917 13:51:16.879731 22701 net.cpp:382] ip1 -> ip1
I0917 13:51:16.879930 22701 net.cpp:124] Setting up ip1
I0917 13:51:16.879940 22701 net.cpp:131] Top shape: 100 10 (1000)
I0917 13:51:16.879943 22701 net.cpp:139] Memory required for data: 36050000
I0917 13:51:16.879951 22701 layer_factory.hpp:77] Creating layer ip1_ip1_0_split
I0917 13:51:16.879957 22701 net.cpp:86] Creating Layer ip1_ip1_0_split
I0917 13:51:16.879962 22701 net.cpp:408] ip1_ip1_0_split <- ip1
I0917 13:51:16.879969 22701 net.cpp:382] ip1_ip1_0_split -> ip1_ip1_0_split_0
I0917 13:51:16.879979 22701 net.cpp:382] ip1_ip1_0_split -> ip1_ip1_0_split_1
I0917 13:51:16.880019 22701 net.cpp:124] Setting up ip1_ip1_0_split
I0917 13:51:16.880025 22701 net.cpp:131] Top shape: 100 10 (1000)
I0917 13:51:16.880028 22701 net.cpp:131] Top shape: 100 10 (1000)
I0917 13:51:16.880031 22701 net.cpp:139] Memory required for data: 36058000
I0917 13:51:16.880035 22701 layer_factory.hpp:77] Creating layer accuracy
I0917 13:51:16.880043 22701 net.cpp:86] Creating Layer accuracy
I0917 13:51:16.880045 22701 net.cpp:408] accuracy <- ip1_ip1_0_split_0
I0917 13:51:16.880049 22701 net.cpp:408] accuracy <- label_svhn_1_split_0
I0917 13:51:16.880055 22701 net.cpp:382] accuracy -> accuracy
…
