…
I0917 11:09:16.416978 20957 net.cpp:296] The NetState phase (0) differed from the phase (1) specified by a rule in layer svhn
I0917 11:09:16.416996 20957 net.cpp:296] The NetState phase (0) differed from the phase (1) specified by a rule in layer accuracy
I0917 11:09:16.417115 20957 net.cpp:53] Initializing net from parameters: 
name: "SVHN_full"
state {
  phase: TRAIN
  level: 0
  stage: ""
}
layer {
  name: "svhn"
  type: "Data"
  top: "data"
  top: "label"
  include {
    phase: TRAIN
  }
  transform_param {
    mean_file: "./examples/svhn/mean.binaryproto"
  }
  data_param {
    source: "./examples/svhn/svhn_train_lmdb"
    batch_size: 50
    backend: LMDB
  }
}
layer {
  name: "conv1"
  type: "Convolution"
  bottom: "data"
  top: "conv1"
  param {
    lr_mult: 1
  }
  param {
    lr_mult: 2
  }
  convolution_param {
    num_output: 32
    pad: 2
    kernel_size: 5
    stride: 1
    weight_filler {
      type: "gaussian"
      std: 0.0001
    }
    bias_filler {
      type: "constant"
    }
  }
}
layer {
  name: "pool1"
  type: "Pooling"
  bottom: "conv1"
  top: "pool1"
  pooling_param {
    pool: MAX
    kernel_size: 3
    stride: 2
  }
}
layer {
  name: "relu1"
  type: "ReLU"
  bottom: "pool1"
  top: "pool1"
}
layer {
  name: "norm1"
  type: "LRN"
  bottom: "pool1"
  top: "norm1"
  lrn_param {
    local_size: 3
    alpha: 5e-05
    beta: 0.75
    norm_region: WITHIN_CHANNEL
  }
}
layer {
  name: "conv2"
  type: "Convolution"
  bottom: "norm1"
  top: "conv2"
  param {
    lr_mult: 1
  }
  param {
    lr_mult: 2
  }
  convolution_param {
    num_output: 32
    pad: 2
    kernel_size: 5
    stride: 1
    weight_filler {
      type: "gaussian"
      std: 0.01
    }
    bias_filler {
      type: "constant"
    }
  }
}
layer {
  name: "relu2"
  type: "ReLU"
  bottom: "conv2"
  top: "conv2"
}
layer {
  name: "pool2"
  type: "Pooling"
  bottom: "conv2"
  top: "pool2"
  pooling_param {
    pool: AVE
    kernel_size: 3
    stride: 2
  }
}
layer {
  name: "norm2"
  type: "LRN"
  bottom: "pool2"
  top: "norm2"
  lrn_param {
    local_size: 3
    alpha: 5e-05
    beta: 0.75
    norm_region: WITHIN_CHANNEL
  }
}
layer {
  name: "conv3"
  type: "Convolution"
  bottom: "norm2"
  top: "conv3"
  convolution_param {
    num_output: 64
    pad: 2
    kernel_size: 5
    stride: 1
    weight_filler {
      type: "gaussian"
      std: 0.01
    }
    bias_filler {
      type: "constant"
    }
  }
}
layer {
  name: "relu3"
  type: "ReLU"
  bottom: "conv3"
  top: "conv3"
}
layer {
  name: "pool3"
  type: "Pooling"
  bottom: "conv3"
  top: "pool3"
  pooling_param {
    pool: AVE
    kernel_size: 3
    stride: 2
  }
}
layer {
  name: "ip1"
  type: "InnerProduct"
  bottom: "pool3"
  top: "ip1"
  param {
    lr_mult: 1
    decay_mult: 250
  }
  param {
    lr_mult: 2
    decay_mult: 0
  }
  inner_product_param {
    num_output: 10
    weight_filler {
      type: "gaussian"
      std: 0.01
    }
    bias_filler {
      type: "constant"
    }
  }
}
layer {
  name: "loss"
  type: "SoftmaxWithLoss"
  bottom: "ip1"
  bottom: "label"
  top: "loss"
}
I0917 11:09:16.417176 20957 layer_factory.hpp:77] Creating layer svhn
I0917 11:09:16.417268 20957 db_lmdb.cpp:35] Opened lmdb ./examples/svhn/svhn_train_lmdb
I0917 11:09:16.417292 20957 net.cpp:86] Creating Layer svhn
I0917 11:09:16.417299 20957 net.cpp:382] svhn -> data
I0917 11:09:16.417320 20957 net.cpp:382] svhn -> label
I0917 11:09:16.417347 20957 data_transformer.cpp:25] Loading mean file from: ./examples/svhn/mean.binaryproto
I0917 11:09:16.419296 20957 data_layer.cpp:45] output data size: 50,3,32,32
I0917 11:09:16.422631 20957 net.cpp:124] Setting up svhn
I0917 11:09:16.422653 20957 net.cpp:131] Top shape: 50 3 32 32 (153600)
I0917 11:09:16.422659 20957 net.cpp:131] Top shape: 50 (50)
I0917 11:09:16.422663 20957 net.cpp:139] Memory required for data: 614600
I0917 11:09:16.422672 20957 layer_factory.hpp:77] Creating layer conv1
I0917 11:09:16.422693 20957 net.cpp:86] Creating Layer conv1
I0917 11:09:16.422698 20957 net.cpp:408] conv1 <- data
I0917 11:09:16.422711 20957 net.cpp:382] conv1 -> conv1
I0917 11:09:16.945861 20957 net.cpp:124] Setting up conv1
I0917 11:09:16.945883 20957 net.cpp:131] Top shape: 50 32 32 32 (1638400)
I0917 11:09:16.945886 20957 net.cpp:139] Memory required for data: 7168200
I0917 11:09:16.945902 20957 layer_factory.hpp:77] Creating layer pool1
I0917 11:09:16.945912 20957 net.cpp:86] Creating Layer pool1
I0917 11:09:16.945916 20957 net.cpp:408] pool1 <- conv1
I0917 11:09:16.945921 20957 net.cpp:382] pool1 -> pool1
I0917 11:09:16.945962 20957 net.cpp:124] Setting up pool1
I0917 11:09:16.945969 20957 net.cpp:131] Top shape: 50 32 16 16 (409600)
I0917 11:09:16.945971 20957 net.cpp:139] Memory required for data: 8806600
I0917 11:09:16.945974 20957 layer_factory.hpp:77] Creating layer relu1
I0917 11:09:16.945978 20957 net.cpp:86] Creating Layer relu1
I0917 11:09:16.945981 20957 net.cpp:408] relu1 <- pool1
I0917 11:09:16.945986 20957 net.cpp:369] relu1 -> pool1 (in-place)
I0917 11:09:16.946383 20957 net.cpp:124] Setting up relu1
I0917 11:09:16.946391 20957 net.cpp:131] Top shape: 50 32 16 16 (409600)
I0917 11:09:16.946394 20957 net.cpp:139] Memory required for data: 10445000
I0917 11:09:16.946398 20957 layer_factory.hpp:77] Creating layer norm1
I0917 11:09:16.946405 20957 net.cpp:86] Creating Layer norm1
I0917 11:09:16.946408 20957 net.cpp:408] norm1 <- pool1
I0917 11:09:16.946413 20957 net.cpp:382] norm1 -> norm1
I0917 11:09:16.947788 20957 net.cpp:124] Setting up norm1
I0917 11:09:16.947799 20957 net.cpp:131] Top shape: 50 32 16 16 (409600)
I0917 11:09:16.947803 20957 net.cpp:139] Memory required for data: 12083400
I0917 11:09:16.947805 20957 layer_factory.hpp:77] Creating layer conv2
I0917 11:09:16.947814 20957 net.cpp:86] Creating Layer conv2
I0917 11:09:16.947819 20957 net.cpp:408] conv2 <- norm1
I0917 11:09:16.947825 20957 net.cpp:382] conv2 -> conv2
I0917 11:09:16.950748 20957 net.cpp:124] Setting up conv2
I0917 11:09:16.950762 20957 net.cpp:131] Top shape: 50 32 16 16 (409600)
I0917 11:09:16.950767 20957 net.cpp:139] Memory required for data: 13721800
I0917 11:09:16.950775 20957 layer_factory.hpp:77] Creating layer relu2
I0917 11:09:16.950781 20957 net.cpp:86] Creating Layer relu2
I0917 11:09:16.950785 20957 net.cpp:408] relu2 <- conv2
I0917 11:09:16.950789 20957 net.cpp:369] relu2 -> conv2 (in-place)
I0917 11:09:16.951478 20957 net.cpp:124] Setting up relu2
I0917 11:09:16.951490 20957 net.cpp:131] Top shape: 50 32 16 16 (409600)
I0917 11:09:16.951494 20957 net.cpp:139] Memory required for data: 15360200
I0917 11:09:16.951499 20957 layer_factory.hpp:77] Creating layer pool2
I0917 11:09:16.951508 20957 net.cpp:86] Creating Layer pool2
I0917 11:09:16.951511 20957 net.cpp:408] pool2 <- conv2
I0917 11:09:16.951519 20957 net.cpp:382] pool2 -> pool2
I0917 11:09:16.951933 20957 net.cpp:124] Setting up pool2
I0917 11:09:16.951943 20957 net.cpp:131] Top shape: 50 32 8 8 (102400)
I0917 11:09:16.951948 20957 net.cpp:139] Memory required for data: 15769800
I0917 11:09:16.951952 20957 layer_factory.hpp:77] Creating layer norm2
I0917 11:09:16.951962 20957 net.cpp:86] Creating Layer norm2
I0917 11:09:16.951968 20957 net.cpp:408] norm2 <- pool2
I0917 11:09:16.951977 20957 net.cpp:382] norm2 -> norm2
I0917 11:09:16.952441 20957 net.cpp:124] Setting up norm2
I0917 11:09:16.952451 20957 net.cpp:131] Top shape: 50 32 8 8 (102400)
I0917 11:09:16.952455 20957 net.cpp:139] Memory required for data: 16179400
I0917 11:09:16.952461 20957 layer_factory.hpp:77] Creating layer conv3
I0917 11:09:16.952482 20957 net.cpp:86] Creating Layer conv3
I0917 11:09:16.952487 20957 net.cpp:408] conv3 <- norm2
I0917 11:09:16.952495 20957 net.cpp:382] conv3 -> conv3
I0917 11:09:16.955044 20957 net.cpp:124] Setting up conv3
I0917 11:09:16.955063 20957 net.cpp:131] Top shape: 50 64 8 8 (204800)
I0917 11:09:16.955067 20957 net.cpp:139] Memory required for data: 16998600
I0917 11:09:16.955081 20957 layer_factory.hpp:77] Creating layer relu3
I0917 11:09:16.955091 20957 net.cpp:86] Creating Layer relu3
I0917 11:09:16.955097 20957 net.cpp:408] relu3 <- conv3
I0917 11:09:16.955106 20957 net.cpp:369] relu3 -> conv3 (in-place)
I0917 11:09:16.955554 20957 net.cpp:124] Setting up relu3
I0917 11:09:16.955566 20957 net.cpp:131] Top shape: 50 64 8 8 (204800)
I0917 11:09:16.955571 20957 net.cpp:139] Memory required for data: 17817800
I0917 11:09:16.955575 20957 layer_factory.hpp:77] Creating layer pool3
I0917 11:09:16.955585 20957 net.cpp:86] Creating Layer pool3
I0917 11:09:16.955590 20957 net.cpp:408] pool3 <- conv3
I0917 11:09:16.955597 20957 net.cpp:382] pool3 -> pool3
I0917 11:09:16.956055 20957 net.cpp:124] Setting up pool3
I0917 11:09:16.956066 20957 net.cpp:131] Top shape: 50 64 4 4 (51200)
I0917 11:09:16.956070 20957 net.cpp:139] Memory required for data: 18022600
I0917 11:09:16.956075 20957 layer_factory.hpp:77] Creating layer ip1
I0917 11:09:16.956084 20957 net.cpp:86] Creating Layer ip1
I0917 11:09:16.956091 20957 net.cpp:408] ip1 <- pool3
I0917 11:09:16.956100 20957 net.cpp:382] ip1 -> ip1
I0917 11:09:16.957175 20957 net.cpp:124] Setting up ip1
I0917 11:09:16.957190 20957 net.cpp:131] Top shape: 50 10 (500)
I0917 11:09:16.957193 20957 net.cpp:139] Memory required for data: 18024600
I0917 11:09:16.957203 20957 layer_factory.hpp:77] Creating layer loss
I0917 11:09:16.957212 20957 net.cpp:86] Creating Layer loss
I0917 11:09:16.957218 20957 net.cpp:408] loss <- ip1
I0917 11:09:16.957226 20957 net.cpp:408] loss <- label
I0917 11:09:16.957234 20957 net.cpp:382] loss -> loss
I0917 11:09:16.957252 20957 layer_factory.hpp:77] Creating layer loss
…
I0917 11:09:16.958405 20957 solver.cpp:190] Creating test net (#0) specified by net file: examples/svhn/svhn_full_train_test.prototxt
I0917 11:09:16.958433 20957 net.cpp:296] The NetState phase (1) differed from the phase (0) specified by a rule in layer svhn
I0917 11:09:16.958530 20957 net.cpp:53] Initializing net from parameters: 
name: "SVHN_full"
state {
  phase: TEST
}
layer {
  name: "svhn"
  type: "Data"
  top: "data"
  top: "label"
  include {
    phase: TEST
  }
  transform_param {
    mean_file: "./examples/svhn/mean.binaryproto"
  }
  data_param {
    source: "./examples/svhn/svhn_test_lmdb"
    batch_size: 100
    backend: LMDB
  }
}
layer {
  name: "conv1"
  type: "Convolution"
  bottom: "data"
  top: "conv1"
  param {
    lr_mult: 1
  }
  param {
    lr_mult: 2
  }
  convolution_param {
    num_output: 32
    pad: 2
    kernel_size: 5
    stride: 1
    weight_filler {
      type: "gaussian"
      std: 0.0001
    }
    bias_filler {
      type: "constant"
    }
  }
}
layer {
  name: "pool1"
  type: "Pooling"
  bottom: "conv1"
  top: "pool1"
  pooling_param {
    pool: MAX
    kernel_size: 3
    stride: 2
  }
}
layer {
  name: "relu1"
  type: "ReLU"
  bottom: "pool1"
  top: "pool1"
}
layer {
  name: "norm1"
  type: "LRN"
  bottom: "pool1"
  top: "norm1"
  lrn_param {
    local_size: 3
    alpha: 5e-05
    beta: 0.75
    norm_region: WITHIN_CHANNEL
  }
}
layer {
  name: "conv2"
  type: "Convolution"
  bottom: "norm1"
  top: "conv2"
  param {
    lr_mult: 1
  }
  param {
    lr_mult: 2
  }
  convolution_param {
    num_output: 32
    pad: 2
    kernel_size: 5
    stride: 1
    weight_filler {
      type: "gaussian"
      std: 0.01
    }
    bias_filler {
      type: "constant"
    }
  }
}
layer {
  name: "relu2"
  type: "ReLU"
  bottom: "conv2"
  top: "conv2"
}
layer {
  name: "pool2"
  type: "Pooling"
  bottom: "conv2"
  top: "pool2"
  pooling_param {
    pool: AVE
    kernel_size: 3
    stride: 2
  }
}
layer {
  name: "norm2"
  type: "LRN"
  bottom: "pool2"
  top: "norm2"
  lrn_param {
    local_size: 3
    alpha: 5e-05
    beta: 0.75
    norm_region: WITHIN_CHANNEL
  }
}
layer {
  name: "conv3"
  type: "Convolution"
  bottom: "norm2"
  top: "conv3"
  convolution_param {
    num_output: 64
    pad: 2
    kernel_size: 5
    stride: 1
    weight_filler {
      type: "gaussian"
      std: 0.01
    }
    bias_filler {
      type: "constant"
    }
  }
}
layer {
  name: "relu3"
  type: "ReLU"
  bottom: "conv3"
  top: "conv3"
}
layer {
  name: "pool3"
  type: "Pooling"
  bottom: "conv3"
  top: "pool3"
  pooling_param {
    pool: AVE
    kernel_size: 3
    stride: 2
  }
}
layer {
  name: "ip1"
  type: "InnerProduct"
  bottom: "pool3"
  top: "ip1"
  param {
    lr_mult: 1
    decay_mult: 250
  }
  param {
    lr_mult: 2
    decay_mult: 0
  }
  inner_product_param {
    num_output: 10
    weight_filler {
      type: "gaussian"
      std: 0.01
    }
    bias_filler {
      type: "constant"
    }
  }
}
layer {
  name: "accuracy"
  type: "Accuracy"
  bottom: "ip1"
  bottom: "label"
  top: "accuracy"
  include {
    phase: TEST
  }
}
layer {
  name: "loss"
  type: "SoftmaxWithLoss"
  bottom: "ip1"
  bottom: "label"
  top: "loss"
}
I0917 11:09:16.958629 20957 layer_factory.hpp:77] Creating layer svhn
I0917 11:09:16.958685 20957 db_lmdb.cpp:35] Opened lmdb ./examples/svhn/svhn_test_lmdb
I0917 11:09:16.958703 20957 net.cpp:86] Creating Layer svhn
I0917 11:09:16.958710 20957 net.cpp:382] svhn -> data
I0917 11:09:16.958721 20957 net.cpp:382] svhn -> label
I0917 11:09:16.958732 20957 data_transformer.cpp:25] Loading mean file from: ./examples/svhn/mean.binaryproto
I0917 11:09:16.958878 20957 data_layer.cpp:45] output data size: 100,3,32,32
I0917 11:09:16.964118 20957 net.cpp:124] Setting up svhn
I0917 11:09:16.964141 20957 net.cpp:131] Top shape: 100 3 32 32 (307200)
I0917 11:09:16.964148 20957 net.cpp:131] Top shape: 100 (100)
I0917 11:09:16.964151 20957 net.cpp:139] Memory required for data: 1229200
I0917 11:09:16.964157 20957 layer_factory.hpp:77] Creating layer label_svhn_1_split
I0917 11:09:16.964170 20957 net.cpp:86] Creating Layer label_svhn_1_split
I0917 11:09:16.964176 20957 net.cpp:408] label_svhn_1_split <- label
I0917 11:09:16.964184 20957 net.cpp:382] label_svhn_1_split -> label_svhn_1_split_0
I0917 11:09:16.964198 20957 net.cpp:382] label_svhn_1_split -> label_svhn_1_split_1
I0917 11:09:16.964263 20957 net.cpp:124] Setting up label_svhn_1_split
I0917 11:09:16.964272 20957 net.cpp:131] Top shape: 100 (100)
I0917 11:09:16.964277 20957 net.cpp:131] Top shape: 100 (100)
I0917 11:09:16.964282 20957 net.cpp:139] Memory required for data: 1230000
I0917 11:09:16.964298 20957 layer_factory.hpp:77] Creating layer conv1
I0917 11:09:16.964314 20957 net.cpp:86] Creating Layer conv1
I0917 11:09:16.964319 20957 net.cpp:408] conv1 <- data
I0917 11:09:16.964327 20957 net.cpp:382] conv1 -> conv1
I0917 11:09:16.966792 20957 net.cpp:124] Setting up conv1
I0917 11:09:16.966807 20957 net.cpp:131] Top shape: 100 32 32 32 (3276800)
I0917 11:09:16.966810 20957 net.cpp:139] Memory required for data: 14337200
I0917 11:09:16.966822 20957 layer_factory.hpp:77] Creating layer pool1
I0917 11:09:16.966833 20957 net.cpp:86] Creating Layer pool1
I0917 11:09:16.966840 20957 net.cpp:408] pool1 <- conv1
I0917 11:09:16.966848 20957 net.cpp:382] pool1 -> pool1
I0917 11:09:16.966903 20957 net.cpp:124] Setting up pool1
I0917 11:09:16.966915 20957 net.cpp:131] Top shape: 100 32 16 16 (819200)
I0917 11:09:16.966920 20957 net.cpp:139] Memory required for data: 17614000
I0917 11:09:16.966925 20957 layer_factory.hpp:77] Creating layer relu1
I0917 11:09:16.966936 20957 net.cpp:86] Creating Layer relu1
I0917 11:09:16.966943 20957 net.cpp:408] relu1 <- pool1
I0917 11:09:16.966951 20957 net.cpp:369] relu1 -> pool1 (in-place)
I0917 11:09:16.968384 20957 net.cpp:124] Setting up relu1
I0917 11:09:16.968399 20957 net.cpp:131] Top shape: 100 32 16 16 (819200)
I0917 11:09:16.968401 20957 net.cpp:139] Memory required for data: 20890800
I0917 11:09:16.968405 20957 layer_factory.hpp:77] Creating layer norm1
I0917 11:09:16.968415 20957 net.cpp:86] Creating Layer norm1
I0917 11:09:16.968423 20957 net.cpp:408] norm1 <- pool1
I0917 11:09:16.968431 20957 net.cpp:382] norm1 -> norm1
I0917 11:09:16.969931 20957 net.cpp:124] Setting up norm1
I0917 11:09:16.969949 20957 net.cpp:131] Top shape: 100 32 16 16 (819200)
I0917 11:09:16.969952 20957 net.cpp:139] Memory required for data: 24167600
I0917 11:09:16.969956 20957 layer_factory.hpp:77] Creating layer conv2
I0917 11:09:16.969969 20957 net.cpp:86] Creating Layer conv2
I0917 11:09:16.969977 20957 net.cpp:408] conv2 <- norm1
I0917 11:09:16.969986 20957 net.cpp:382] conv2 -> conv2
I0917 11:09:16.973047 20957 net.cpp:124] Setting up conv2
I0917 11:09:16.973060 20957 net.cpp:131] Top shape: 100 32 16 16 (819200)
I0917 11:09:16.973064 20957 net.cpp:139] Memory required for data: 27444400
I0917 11:09:16.973074 20957 layer_factory.hpp:77] Creating layer relu2
I0917 11:09:16.973083 20957 net.cpp:86] Creating Layer relu2
I0917 11:09:16.973090 20957 net.cpp:408] relu2 <- conv2
I0917 11:09:16.973098 20957 net.cpp:369] relu2 -> conv2 (in-place)
I0917 11:09:16.974077 20957 net.cpp:124] Setting up relu2
I0917 11:09:16.974092 20957 net.cpp:131] Top shape: 100 32 16 16 (819200)
I0917 11:09:16.974094 20957 net.cpp:139] Memory required for data: 30721200
I0917 11:09:16.974098 20957 layer_factory.hpp:77] Creating layer pool2
I0917 11:09:16.974108 20957 net.cpp:86] Creating Layer pool2
I0917 11:09:16.974114 20957 net.cpp:408] pool2 <- conv2
I0917 11:09:16.974122 20957 net.cpp:382] pool2 -> pool2
I0917 11:09:16.974742 20957 net.cpp:124] Setting up pool2
I0917 11:09:16.974757 20957 net.cpp:131] Top shape: 100 32 8 8 (204800)
I0917 11:09:16.974762 20957 net.cpp:139] Memory required for data: 31540400
I0917 11:09:16.974767 20957 layer_factory.hpp:77] Creating layer norm2
I0917 11:09:16.974777 20957 net.cpp:86] Creating Layer norm2
I0917 11:09:16.974783 20957 net.cpp:408] norm2 <- pool2
I0917 11:09:16.974792 20957 net.cpp:382] norm2 -> norm2
I0917 11:09:16.975507 20957 net.cpp:124] Setting up norm2
I0917 11:09:16.975522 20957 net.cpp:131] Top shape: 100 32 8 8 (204800)
I0917 11:09:16.975524 20957 net.cpp:139] Memory required for data: 32359600
I0917 11:09:16.975528 20957 layer_factory.hpp:77] Creating layer conv3
I0917 11:09:16.975538 20957 net.cpp:86] Creating Layer conv3
I0917 11:09:16.975543 20957 net.cpp:408] conv3 <- norm2
I0917 11:09:16.975550 20957 net.cpp:382] conv3 -> conv3
I0917 11:09:16.978541 20957 net.cpp:124] Setting up conv3
I0917 11:09:16.978560 20957 net.cpp:131] Top shape: 100 64 8 8 (409600)
I0917 11:09:16.978564 20957 net.cpp:139] Memory required for data: 33998000
I0917 11:09:16.978595 20957 layer_factory.hpp:77] Creating layer relu3
I0917 11:09:16.978608 20957 net.cpp:86] Creating Layer relu3
I0917 11:09:16.978628 20957 net.cpp:408] relu3 <- conv3
I0917 11:09:16.978636 20957 net.cpp:369] relu3 -> conv3 (in-place)
I0917 11:09:16.979336 20957 net.cpp:124] Setting up relu3
I0917 11:09:16.979354 20957 net.cpp:131] Top shape: 100 64 8 8 (409600)
I0917 11:09:16.979360 20957 net.cpp:139] Memory required for data: 35636400
I0917 11:09:16.979368 20957 layer_factory.hpp:77] Creating layer pool3
I0917 11:09:16.979378 20957 net.cpp:86] Creating Layer pool3
I0917 11:09:16.979383 20957 net.cpp:408] pool3 <- conv3
I0917 11:09:16.979393 20957 net.cpp:382] pool3 -> pool3
I0917 11:09:16.980481 20957 net.cpp:124] Setting up pool3
I0917 11:09:16.980495 20957 net.cpp:131] Top shape: 100 64 4 4 (102400)
I0917 11:09:16.980499 20957 net.cpp:139] Memory required for data: 36046000
I0917 11:09:16.980504 20957 layer_factory.hpp:77] Creating layer ip1
I0917 11:09:16.980515 20957 net.cpp:86] Creating Layer ip1
I0917 11:09:16.980522 20957 net.cpp:408] ip1 <- pool3
I0917 11:09:16.980533 20957 net.cpp:382] ip1 -> ip1
I0917 11:09:16.980849 20957 net.cpp:124] Setting up ip1
I0917 11:09:16.980860 20957 net.cpp:131] Top shape: 100 10 (1000)
I0917 11:09:16.980862 20957 net.cpp:139] Memory required for data: 36050000
I0917 11:09:16.980870 20957 layer_factory.hpp:77] Creating layer ip1_ip1_0_split
I0917 11:09:16.980882 20957 net.cpp:86] Creating Layer ip1_ip1_0_split
I0917 11:09:16.980888 20957 net.cpp:408] ip1_ip1_0_split <- ip1
I0917 11:09:16.980896 20957 net.cpp:382] ip1_ip1_0_split -> ip1_ip1_0_split_0
I0917 11:09:16.980907 20957 net.cpp:382] ip1_ip1_0_split -> ip1_ip1_0_split_1
I0917 11:09:16.980965 20957 net.cpp:124] Setting up ip1_ip1_0_split
I0917 11:09:16.980975 20957 net.cpp:131] Top shape: 100 10 (1000)
I0917 11:09:16.980983 20957 net.cpp:131] Top shape: 100 10 (1000)
I0917 11:09:16.980988 20957 net.cpp:139] Memory required for data: 36058000
I0917 11:09:16.980991 20957 layer_factory.hpp:77] Creating layer accuracy
I0917 11:09:16.981001 20957 net.cpp:86] Creating Layer accuracy
I0917 11:09:16.981007 20957 net.cpp:408] accuracy <- ip1_ip1_0_split_0
I0917 11:09:16.981014 20957 net.cpp:408] accuracy <- label_svhn_1_split_0
I0917 11:09:16.981024 20957 net.cpp:382] accuracy -> accuracy
…
