…
I0917 17:55:10.480696 26853 net.cpp:296] The NetState phase (0) differed from the phase (1) specified by a rule in layer svhn
I0917 17:55:10.480710 26853 net.cpp:296] The NetState phase (0) differed from the phase (1) specified by a rule in layer accuracy
I0917 17:55:10.480809 26853 net.cpp:53] Initializing net from parameters: 
name: "SVHN_full"
state {
  phase: TRAIN
  level: 0
  stage: ""
}
layer {
  name: "svhn"
  type: "Data"
  top: "data"
  top: "label"
  include {
    phase: TRAIN
  }
  transform_param {
    mean_file: "./examples/svhn/mean.binaryproto"
  }
  data_param {
    source: "./examples/svhn/svhn_train_lmdb"
    batch_size: 50
    backend: LMDB
  }
}
layer {
  name: "conv1"
  type: "Convolution"
  bottom: "data"
  top: "conv1"
  param {
    lr_mult: 1
  }
  param {
    lr_mult: 2
  }
  convolution_param {
    num_output: 32
    pad: 2
    kernel_size: 5
    stride: 1
    weight_filler {
      type: "gaussian"
      std: 0.0001
    }
    bias_filler {
      type: "constant"
    }
  }
}
layer {
  name: "pool1"
  type: "Pooling"
  bottom: "conv1"
  top: "pool1"
  pooling_param {
    pool: MAX
    kernel_size: 3
    stride: 2
  }
}
layer {
  name: "relu1"
  type: "ReLU"
  bottom: "pool1"
  top: "pool1"
}
layer {
  name: "norm1"
  type: "LRN"
  bottom: "pool1"
  top: "norm1"
  lrn_param {
    local_size: 3
    alpha: 5e-05
    beta: 0.75
    norm_region: WITHIN_CHANNEL
  }
}
layer {
  name: "conv2"
  type: "Convolution"
  bottom: "norm1"
  top: "conv2"
  param {
    lr_mult: 1
  }
  param {
    lr_mult: 2
  }
  convolution_param {
    num_output: 32
    pad: 2
    kernel_size: 5
    stride: 1
    weight_filler {
      type: "gaussian"
      std: 0.01
    }
    bias_filler {
      type: "constant"
    }
  }
}
layer {
  name: "relu2"
  type: "ReLU"
  bottom: "conv2"
  top: "conv2"
}
layer {
  name: "pool2"
  type: "Pooling"
  bottom: "conv2"
  top: "pool2"
  pooling_param {
    pool: AVE
    kernel_size: 3
    stride: 2
  }
}
layer {
  name: "norm2"
  type: "LRN"
  bottom: "pool2"
  top: "norm2"
  lrn_param {
    local_size: 3
    alpha: 5e-05
    beta: 0.75
    norm_region: WITHIN_CHANNEL
  }
}
layer {
  name: "conv3"
  type: "Convolution"
  bottom: "norm2"
  top: "conv3"
  convolution_param {
    num_output: 64
    pad: 2
    kernel_size: 5
    stride: 1
    weight_filler {
      type: "gaussian"
      std: 0.01
    }
    bias_filler {
      type: "constant"
    }
  }
}
layer {
  name: "relu3"
  type: "ReLU"
  bottom: "conv3"
  top: "conv3"
}
layer {
  name: "pool3"
  type: "Pooling"
  bottom: "conv3"
  top: "pool3"
  pooling_param {
    pool: AVE
    kernel_size: 3
    stride: 2
  }
}
layer {
  name: "ip1"
  type: "InnerProduct"
  bottom: "pool3"
  top: "ip1"
  param {
    lr_mult: 1
    decay_mult: 250
  }
  param {
    lr_mult: 2
    decay_mult: 0
  }
  inner_product_param {
    num_output: 10
    weight_filler {
      type: "gaussian"
      std: 0.01
    }
    bias_filler {
      type: "constant"
    }
  }
}
layer {
  name: "loss"
  type: "SoftmaxWithLoss"
  bottom: "ip1"
  bottom: "label"
  top: "loss"
}
I0917 17:55:10.480864 26853 layer_factory.hpp:77] Creating layer svhn
I0917 17:55:10.480950 26853 db_lmdb.cpp:35] Opened lmdb ./examples/svhn/svhn_train_lmdb
I0917 17:55:10.480975 26853 net.cpp:86] Creating Layer svhn
I0917 17:55:10.480984 26853 net.cpp:382] svhn -> data
I0917 17:55:10.481000 26853 net.cpp:382] svhn -> label
I0917 17:55:10.481029 26853 data_transformer.cpp:25] Loading mean file from: ./examples/svhn/mean.binaryproto
I0917 17:55:10.482697 26853 data_layer.cpp:45] output data size: 50,3,32,32
I0917 17:55:10.485960 26853 net.cpp:124] Setting up svhn
I0917 17:55:10.485985 26853 net.cpp:131] Top shape: 50 3 32 32 (153600)
I0917 17:55:10.485991 26853 net.cpp:131] Top shape: 50 (50)
I0917 17:55:10.485993 26853 net.cpp:139] Memory required for data: 614600
I0917 17:55:10.486001 26853 layer_factory.hpp:77] Creating layer conv1
I0917 17:55:10.486019 26853 net.cpp:86] Creating Layer conv1
I0917 17:55:10.486024 26853 net.cpp:408] conv1 <- data
I0917 17:55:10.486037 26853 net.cpp:382] conv1 -> conv1
I0917 17:55:11.012259 26853 net.cpp:124] Setting up conv1
I0917 17:55:11.012281 26853 net.cpp:131] Top shape: 50 32 32 32 (1638400)
I0917 17:55:11.012285 26853 net.cpp:139] Memory required for data: 7168200
I0917 17:55:11.012302 26853 layer_factory.hpp:77] Creating layer pool1
I0917 17:55:11.012312 26853 net.cpp:86] Creating Layer pool1
I0917 17:55:11.012317 26853 net.cpp:408] pool1 <- conv1
I0917 17:55:11.012322 26853 net.cpp:382] pool1 -> pool1
I0917 17:55:11.012369 26853 net.cpp:124] Setting up pool1
I0917 17:55:11.012375 26853 net.cpp:131] Top shape: 50 32 16 16 (409600)
I0917 17:55:11.012378 26853 net.cpp:139] Memory required for data: 8806600
I0917 17:55:11.012382 26853 layer_factory.hpp:77] Creating layer relu1
I0917 17:55:11.012388 26853 net.cpp:86] Creating Layer relu1
I0917 17:55:11.012392 26853 net.cpp:408] relu1 <- pool1
I0917 17:55:11.012399 26853 net.cpp:369] relu1 -> pool1 (in-place)
I0917 17:55:11.012825 26853 net.cpp:124] Setting up relu1
I0917 17:55:11.012835 26853 net.cpp:131] Top shape: 50 32 16 16 (409600)
I0917 17:55:11.012838 26853 net.cpp:139] Memory required for data: 10445000
I0917 17:55:11.012841 26853 layer_factory.hpp:77] Creating layer norm1
I0917 17:55:11.012850 26853 net.cpp:86] Creating Layer norm1
I0917 17:55:11.012853 26853 net.cpp:408] norm1 <- pool1
I0917 17:55:11.012857 26853 net.cpp:382] norm1 -> norm1
I0917 17:55:11.014302 26853 net.cpp:124] Setting up norm1
I0917 17:55:11.014314 26853 net.cpp:131] Top shape: 50 32 16 16 (409600)
I0917 17:55:11.014317 26853 net.cpp:139] Memory required for data: 12083400
I0917 17:55:11.014320 26853 layer_factory.hpp:77] Creating layer conv2
I0917 17:55:11.014329 26853 net.cpp:86] Creating Layer conv2
I0917 17:55:11.014333 26853 net.cpp:408] conv2 <- norm1
I0917 17:55:11.014338 26853 net.cpp:382] conv2 -> conv2
I0917 17:55:11.017385 26853 net.cpp:124] Setting up conv2
I0917 17:55:11.017402 26853 net.cpp:131] Top shape: 50 32 16 16 (409600)
I0917 17:55:11.017407 26853 net.cpp:139] Memory required for data: 13721800
I0917 17:55:11.017421 26853 layer_factory.hpp:77] Creating layer relu2
I0917 17:55:11.017431 26853 net.cpp:86] Creating Layer relu2
I0917 17:55:11.017434 26853 net.cpp:408] relu2 <- conv2
I0917 17:55:11.017441 26853 net.cpp:369] relu2 -> conv2 (in-place)
I0917 17:55:11.018391 26853 net.cpp:124] Setting up relu2
I0917 17:55:11.018410 26853 net.cpp:131] Top shape: 50 32 16 16 (409600)
I0917 17:55:11.018414 26853 net.cpp:139] Memory required for data: 15360200
I0917 17:55:11.018417 26853 layer_factory.hpp:77] Creating layer pool2
I0917 17:55:11.018438 26853 net.cpp:86] Creating Layer pool2
I0917 17:55:11.018441 26853 net.cpp:408] pool2 <- conv2
I0917 17:55:11.018448 26853 net.cpp:382] pool2 -> pool2
I0917 17:55:11.019062 26853 net.cpp:124] Setting up pool2
I0917 17:55:11.019075 26853 net.cpp:131] Top shape: 50 32 8 8 (102400)
I0917 17:55:11.019078 26853 net.cpp:139] Memory required for data: 15769800
I0917 17:55:11.019083 26853 layer_factory.hpp:77] Creating layer norm2
I0917 17:55:11.019091 26853 net.cpp:86] Creating Layer norm2
I0917 17:55:11.019096 26853 net.cpp:408] norm2 <- pool2
I0917 17:55:11.019104 26853 net.cpp:382] norm2 -> norm2
I0917 17:55:11.019652 26853 net.cpp:124] Setting up norm2
I0917 17:55:11.019664 26853 net.cpp:131] Top shape: 50 32 8 8 (102400)
I0917 17:55:11.019666 26853 net.cpp:139] Memory required for data: 16179400
I0917 17:55:11.019670 26853 layer_factory.hpp:77] Creating layer conv3
I0917 17:55:11.019691 26853 net.cpp:86] Creating Layer conv3
I0917 17:55:11.019695 26853 net.cpp:408] conv3 <- norm2
I0917 17:55:11.019701 26853 net.cpp:382] conv3 -> conv3
I0917 17:55:11.022583 26853 net.cpp:124] Setting up conv3
I0917 17:55:11.022598 26853 net.cpp:131] Top shape: 50 64 8 8 (204800)
I0917 17:55:11.022601 26853 net.cpp:139] Memory required for data: 16998600
I0917 17:55:11.022611 26853 layer_factory.hpp:77] Creating layer relu3
I0917 17:55:11.022617 26853 net.cpp:86] Creating Layer relu3
I0917 17:55:11.022622 26853 net.cpp:408] relu3 <- conv3
I0917 17:55:11.022629 26853 net.cpp:369] relu3 -> conv3 (in-place)
I0917 17:55:11.023085 26853 net.cpp:124] Setting up relu3
I0917 17:55:11.023097 26853 net.cpp:131] Top shape: 50 64 8 8 (204800)
I0917 17:55:11.023099 26853 net.cpp:139] Memory required for data: 17817800
I0917 17:55:11.023102 26853 layer_factory.hpp:77] Creating layer pool3
I0917 17:55:11.023108 26853 net.cpp:86] Creating Layer pool3
I0917 17:55:11.023110 26853 net.cpp:408] pool3 <- conv3
I0917 17:55:11.023115 26853 net.cpp:382] pool3 -> pool3
I0917 17:55:11.023560 26853 net.cpp:124] Setting up pool3
I0917 17:55:11.023571 26853 net.cpp:131] Top shape: 50 64 4 4 (51200)
I0917 17:55:11.023573 26853 net.cpp:139] Memory required for data: 18022600
I0917 17:55:11.023576 26853 layer_factory.hpp:77] Creating layer ip1
I0917 17:55:11.023582 26853 net.cpp:86] Creating Layer ip1
I0917 17:55:11.023586 26853 net.cpp:408] ip1 <- pool3
I0917 17:55:11.023592 26853 net.cpp:382] ip1 -> ip1
I0917 17:55:11.024691 26853 net.cpp:124] Setting up ip1
I0917 17:55:11.024703 26853 net.cpp:131] Top shape: 50 10 (500)
I0917 17:55:11.024705 26853 net.cpp:139] Memory required for data: 18024600
I0917 17:55:11.024711 26853 layer_factory.hpp:77] Creating layer loss
I0917 17:55:11.024719 26853 net.cpp:86] Creating Layer loss
I0917 17:55:11.024724 26853 net.cpp:408] loss <- ip1
I0917 17:55:11.024730 26853 net.cpp:408] loss <- label
I0917 17:55:11.024739 26853 net.cpp:382] loss -> loss
I0917 17:55:11.024756 26853 layer_factory.hpp:77] Creating layer loss
…
I0917 17:55:11.025979 26853 solver.cpp:190] Creating test net (#0) specified by net file: examples/svhn/svhn_full_train_test.prototxt
I0917 17:55:11.026016 26853 net.cpp:296] The NetState phase (1) differed from the phase (0) specified by a rule in layer svhn
I0917 17:55:11.026165 26853 net.cpp:53] Initializing net from parameters: 
name: "SVHN_full"
state {
  phase: TEST
}
layer {
  name: "svhn"
  type: "Data"
  top: "data"
  top: "label"
  include {
    phase: TEST
  }
  transform_param {
    mean_file: "./examples/svhn/mean.binaryproto"
  }
  data_param {
    source: "./examples/svhn/svhn_test_lmdb"
    batch_size: 100
    backend: LMDB
  }
}
layer {
  name: "conv1"
  type: "Convolution"
  bottom: "data"
  top: "conv1"
  param {
    lr_mult: 1
  }
  param {
    lr_mult: 2
  }
  convolution_param {
    num_output: 32
    pad: 2
    kernel_size: 5
    stride: 1
    weight_filler {
      type: "gaussian"
      std: 0.0001
    }
    bias_filler {
      type: "constant"
    }
  }
}
layer {
  name: "pool1"
  type: "Pooling"
  bottom: "conv1"
  top: "pool1"
  pooling_param {
    pool: MAX
    kernel_size: 3
    stride: 2
  }
}
layer {
  name: "relu1"
  type: "ReLU"
  bottom: "pool1"
  top: "pool1"
}
layer {
  name: "norm1"
  type: "LRN"
  bottom: "pool1"
  top: "norm1"
  lrn_param {
    local_size: 3
    alpha: 5e-05
    beta: 0.75
    norm_region: WITHIN_CHANNEL
  }
}
layer {
  name: "conv2"
  type: "Convolution"
  bottom: "norm1"
  top: "conv2"
  param {
    lr_mult: 1
  }
  param {
    lr_mult: 2
  }
  convolution_param {
    num_output: 32
    pad: 2
    kernel_size: 5
    stride: 1
    weight_filler {
      type: "gaussian"
      std: 0.01
    }
    bias_filler {
      type: "constant"
    }
  }
}
layer {
  name: "relu2"
  type: "ReLU"
  bottom: "conv2"
  top: "conv2"
}
layer {
  name: "pool2"
  type: "Pooling"
  bottom: "conv2"
  top: "pool2"
  pooling_param {
    pool: AVE
    kernel_size: 3
    stride: 2
  }
}
layer {
  name: "norm2"
  type: "LRN"
  bottom: "pool2"
  top: "norm2"
  lrn_param {
    local_size: 3
    alpha: 5e-05
    beta: 0.75
    norm_region: WITHIN_CHANNEL
  }
}
layer {
  name: "conv3"
  type: "Convolution"
  bottom: "norm2"
  top: "conv3"
  convolution_param {
    num_output: 64
    pad: 2
    kernel_size: 5
    stride: 1
    weight_filler {
      type: "gaussian"
      std: 0.01
    }
    bias_filler {
      type: "constant"
    }
  }
}
layer {
  name: "relu3"
  type: "ReLU"
  bottom: "conv3"
  top: "conv3"
}
layer {
  name: "pool3"
  type: "Pooling"
  bottom: "conv3"
  top: "pool3"
  pooling_param {
    pool: AVE
    kernel_size: 3
    stride: 2
  }
}
layer {
  name: "ip1"
  type: "InnerProduct"
  bottom: "pool3"
  top: "ip1"
  param {
    lr_mult: 1
    decay_mult: 250
  }
  param {
    lr_mult: 2
    decay_mult: 0
  }
  inner_product_param {
    num_output: 10
    weight_filler {
      type: "gaussian"
      std: 0.01
    }
    bias_filler {
      type: "constant"
    }
  }
}
layer {
  name: "accuracy"
  type: "Accuracy"
  bottom: "ip1"
  bottom: "label"
  top: "accuracy"
  include {
    phase: TEST
  }
}
layer {
  name: "loss"
  type: "SoftmaxWithLoss"
  bottom: "ip1"
  bottom: "label"
  top: "loss"
}
I0917 17:55:11.026274 26853 layer_factory.hpp:77] Creating layer svhn
I0917 17:55:11.026338 26853 db_lmdb.cpp:35] Opened lmdb ./examples/svhn/svhn_test_lmdb
I0917 17:55:11.026358 26853 net.cpp:86] Creating Layer svhn
I0917 17:55:11.026368 26853 net.cpp:382] svhn -> data
I0917 17:55:11.026381 26853 net.cpp:382] svhn -> label
I0917 17:55:11.026391 26853 data_transformer.cpp:25] Loading mean file from: ./examples/svhn/mean.binaryproto
I0917 17:55:11.026562 26853 data_layer.cpp:45] output data size: 100,3,32,32
I0917 17:55:11.032786 26853 net.cpp:124] Setting up svhn
I0917 17:55:11.032814 26853 net.cpp:131] Top shape: 100 3 32 32 (307200)
I0917 17:55:11.032822 26853 net.cpp:131] Top shape: 100 (100)
I0917 17:55:11.032826 26853 net.cpp:139] Memory required for data: 1229200
I0917 17:55:11.032832 26853 layer_factory.hpp:77] Creating layer label_svhn_1_split
I0917 17:55:11.032847 26853 net.cpp:86] Creating Layer label_svhn_1_split
I0917 17:55:11.032855 26853 net.cpp:408] label_svhn_1_split <- label
I0917 17:55:11.032863 26853 net.cpp:382] label_svhn_1_split -> label_svhn_1_split_0
I0917 17:55:11.032877 26853 net.cpp:382] label_svhn_1_split -> label_svhn_1_split_1
I0917 17:55:11.032968 26853 net.cpp:124] Setting up label_svhn_1_split
I0917 17:55:11.032976 26853 net.cpp:131] Top shape: 100 (100)
I0917 17:55:11.032984 26853 net.cpp:131] Top shape: 100 (100)
I0917 17:55:11.032987 26853 net.cpp:139] Memory required for data: 1230000
I0917 17:55:11.033006 26853 layer_factory.hpp:77] Creating layer conv1
I0917 17:55:11.033025 26853 net.cpp:86] Creating Layer conv1
I0917 17:55:11.033030 26853 net.cpp:408] conv1 <- data
I0917 17:55:11.033038 26853 net.cpp:382] conv1 -> conv1
I0917 17:55:11.036882 26853 net.cpp:124] Setting up conv1
I0917 17:55:11.036911 26853 net.cpp:131] Top shape: 100 32 32 32 (3276800)
I0917 17:55:11.036918 26853 net.cpp:139] Memory required for data: 14337200
I0917 17:55:11.036933 26853 layer_factory.hpp:77] Creating layer pool1
I0917 17:55:11.036945 26853 net.cpp:86] Creating Layer pool1
I0917 17:55:11.036952 26853 net.cpp:408] pool1 <- conv1
I0917 17:55:11.036962 26853 net.cpp:382] pool1 -> pool1
I0917 17:55:11.037021 26853 net.cpp:124] Setting up pool1
I0917 17:55:11.037034 26853 net.cpp:131] Top shape: 100 32 16 16 (819200)
I0917 17:55:11.037039 26853 net.cpp:139] Memory required for data: 17614000
I0917 17:55:11.037045 26853 layer_factory.hpp:77] Creating layer relu1
I0917 17:55:11.037052 26853 net.cpp:86] Creating Layer relu1
I0917 17:55:11.037056 26853 net.cpp:408] relu1 <- pool1
I0917 17:55:11.037063 26853 net.cpp:369] relu1 -> pool1 (in-place)
I0917 17:55:11.038810 26853 net.cpp:124] Setting up relu1
I0917 17:55:11.038827 26853 net.cpp:131] Top shape: 100 32 16 16 (819200)
I0917 17:55:11.038831 26853 net.cpp:139] Memory required for data: 20890800
I0917 17:55:11.038836 26853 layer_factory.hpp:77] Creating layer norm1
I0917 17:55:11.038848 26853 net.cpp:86] Creating Layer norm1
I0917 17:55:11.038854 26853 net.cpp:408] norm1 <- pool1
I0917 17:55:11.038861 26853 net.cpp:382] norm1 -> norm1
I0917 17:55:11.040949 26853 net.cpp:124] Setting up norm1
I0917 17:55:11.040971 26853 net.cpp:131] Top shape: 100 32 16 16 (819200)
I0917 17:55:11.040977 26853 net.cpp:139] Memory required for data: 24167600
I0917 17:55:11.040982 26853 layer_factory.hpp:77] Creating layer conv2
I0917 17:55:11.040998 26853 net.cpp:86] Creating Layer conv2
I0917 17:55:11.041008 26853 net.cpp:408] conv2 <- norm1
I0917 17:55:11.041021 26853 net.cpp:382] conv2 -> conv2
I0917 17:55:11.043560 26853 net.cpp:124] Setting up conv2
I0917 17:55:11.043573 26853 net.cpp:131] Top shape: 100 32 16 16 (819200)
I0917 17:55:11.043576 26853 net.cpp:139] Memory required for data: 27444400
I0917 17:55:11.043586 26853 layer_factory.hpp:77] Creating layer relu2
I0917 17:55:11.043592 26853 net.cpp:86] Creating Layer relu2
I0917 17:55:11.043596 26853 net.cpp:408] relu2 <- conv2
I0917 17:55:11.043601 26853 net.cpp:369] relu2 -> conv2 (in-place)
I0917 17:55:11.044450 26853 net.cpp:124] Setting up relu2
I0917 17:55:11.044462 26853 net.cpp:131] Top shape: 100 32 16 16 (819200)
I0917 17:55:11.044466 26853 net.cpp:139] Memory required for data: 30721200
I0917 17:55:11.044468 26853 layer_factory.hpp:77] Creating layer pool2
I0917 17:55:11.044476 26853 net.cpp:86] Creating Layer pool2
I0917 17:55:11.044479 26853 net.cpp:408] pool2 <- conv2
I0917 17:55:11.044484 26853 net.cpp:382] pool2 -> pool2
I0917 17:55:11.045142 26853 net.cpp:124] Setting up pool2
I0917 17:55:11.045153 26853 net.cpp:131] Top shape: 100 32 8 8 (204800)
I0917 17:55:11.045156 26853 net.cpp:139] Memory required for data: 31540400
I0917 17:55:11.045159 26853 layer_factory.hpp:77] Creating layer norm2
I0917 17:55:11.045167 26853 net.cpp:86] Creating Layer norm2
I0917 17:55:11.045176 26853 net.cpp:408] norm2 <- pool2
I0917 17:55:11.045182 26853 net.cpp:382] norm2 -> norm2
I0917 17:55:11.045809 26853 net.cpp:124] Setting up norm2
I0917 17:55:11.045819 26853 net.cpp:131] Top shape: 100 32 8 8 (204800)
I0917 17:55:11.045822 26853 net.cpp:139] Memory required for data: 32359600
I0917 17:55:11.045825 26853 layer_factory.hpp:77] Creating layer conv3
I0917 17:55:11.045835 26853 net.cpp:86] Creating Layer conv3
I0917 17:55:11.045840 26853 net.cpp:408] conv3 <- norm2
I0917 17:55:11.045850 26853 net.cpp:382] conv3 -> conv3
I0917 17:55:11.048820 26853 net.cpp:124] Setting up conv3
I0917 17:55:11.048831 26853 net.cpp:131] Top shape: 100 64 8 8 (409600)
I0917 17:55:11.048835 26853 net.cpp:139] Memory required for data: 33998000
I0917 17:55:11.048854 26853 layer_factory.hpp:77] Creating layer relu3
I0917 17:55:11.048861 26853 net.cpp:86] Creating Layer relu3
I0917 17:55:11.048864 26853 net.cpp:408] relu3 <- conv3
I0917 17:55:11.048868 26853 net.cpp:369] relu3 -> conv3 (in-place)
I0917 17:55:11.049383 26853 net.cpp:124] Setting up relu3
I0917 17:55:11.049396 26853 net.cpp:131] Top shape: 100 64 8 8 (409600)
I0917 17:55:11.049401 26853 net.cpp:139] Memory required for data: 35636400
I0917 17:55:11.049405 26853 layer_factory.hpp:77] Creating layer pool3
I0917 17:55:11.049413 26853 net.cpp:86] Creating Layer pool3
I0917 17:55:11.049418 26853 net.cpp:408] pool3 <- conv3
I0917 17:55:11.049425 26853 net.cpp:382] pool3 -> pool3
I0917 17:55:11.050241 26853 net.cpp:124] Setting up pool3
I0917 17:55:11.050253 26853 net.cpp:131] Top shape: 100 64 4 4 (102400)
I0917 17:55:11.050258 26853 net.cpp:139] Memory required for data: 36046000
I0917 17:55:11.050262 26853 layer_factory.hpp:77] Creating layer ip1
I0917 17:55:11.050273 26853 net.cpp:86] Creating Layer ip1
I0917 17:55:11.050279 26853 net.cpp:408] ip1 <- pool3
I0917 17:55:11.050287 26853 net.cpp:382] ip1 -> ip1
I0917 17:55:11.050488 26853 net.cpp:124] Setting up ip1
I0917 17:55:11.050495 26853 net.cpp:131] Top shape: 100 10 (1000)
I0917 17:55:11.050499 26853 net.cpp:139] Memory required for data: 36050000
I0917 17:55:11.050508 26853 layer_factory.hpp:77] Creating layer ip1_ip1_0_split
I0917 17:55:11.050516 26853 net.cpp:86] Creating Layer ip1_ip1_0_split
I0917 17:55:11.050521 26853 net.cpp:408] ip1_ip1_0_split <- ip1
I0917 17:55:11.050530 26853 net.cpp:382] ip1_ip1_0_split -> ip1_ip1_0_split_0
I0917 17:55:11.050541 26853 net.cpp:382] ip1_ip1_0_split -> ip1_ip1_0_split_1
I0917 17:55:11.050583 26853 net.cpp:124] Setting up ip1_ip1_0_split
I0917 17:55:11.050590 26853 net.cpp:131] Top shape: 100 10 (1000)
I0917 17:55:11.050595 26853 net.cpp:131] Top shape: 100 10 (1000)
I0917 17:55:11.050598 26853 net.cpp:139] Memory required for data: 36058000
I0917 17:55:11.050602 26853 layer_factory.hpp:77] Creating layer accuracy
I0917 17:55:11.050611 26853 net.cpp:86] Creating Layer accuracy
I0917 17:55:11.050617 26853 net.cpp:408] accuracy <- ip1_ip1_0_split_0
I0917 17:55:11.050622 26853 net.cpp:408] accuracy <- label_svhn_1_split_0
I0917 17:55:11.050631 26853 net.cpp:382] accuracy -> accuracy
…
