…
I0917 12:30:23.091105 21816 net.cpp:296] The NetState phase (0) differed from the phase (1) specified by a rule in layer svhn
I0917 12:30:23.091122 21816 net.cpp:296] The NetState phase (0) differed from the phase (1) specified by a rule in layer accuracy
I0917 12:30:23.091225 21816 net.cpp:53] Initializing net from parameters: 
name: "SVHN_full"
state {
  phase: TRAIN
  level: 0
  stage: ""
}
layer {
  name: "svhn"
  type: "Data"
  top: "data"
  top: "label"
  include {
    phase: TRAIN
  }
  transform_param {
    mean_file: "./examples/svhn/mean.binaryproto"
  }
  data_param {
    source: "./examples/svhn/svhn_train_lmdb"
    batch_size: 50
    backend: LMDB
  }
}
layer {
  name: "conv1"
  type: "Convolution"
  bottom: "data"
  top: "conv1"
  param {
    lr_mult: 1
  }
  param {
    lr_mult: 2
  }
  convolution_param {
    num_output: 32
    pad: 2
    kernel_size: 5
    stride: 1
    weight_filler {
      type: "gaussian"
      std: 0.0001
    }
    bias_filler {
      type: "constant"
    }
  }
}
layer {
  name: "pool1"
  type: "Pooling"
  bottom: "conv1"
  top: "pool1"
  pooling_param {
    pool: MAX
    kernel_size: 3
    stride: 2
  }
}
layer {
  name: "relu1"
  type: "ReLU"
  bottom: "pool1"
  top: "pool1"
}
layer {
  name: "norm1"
  type: "LRN"
  bottom: "pool1"
  top: "norm1"
  lrn_param {
    local_size: 3
    alpha: 5e-05
    beta: 0.75
    norm_region: WITHIN_CHANNEL
  }
}
layer {
  name: "conv2"
  type: "Convolution"
  bottom: "norm1"
  top: "conv2"
  param {
    lr_mult: 1
  }
  param {
    lr_mult: 2
  }
  convolution_param {
    num_output: 32
    pad: 2
    kernel_size: 5
    stride: 1
    weight_filler {
      type: "gaussian"
      std: 0.01
    }
    bias_filler {
      type: "constant"
    }
  }
}
layer {
  name: "relu2"
  type: "ReLU"
  bottom: "conv2"
  top: "conv2"
}
layer {
  name: "pool2"
  type: "Pooling"
  bottom: "conv2"
  top: "pool2"
  pooling_param {
    pool: AVE
    kernel_size: 3
    stride: 2
  }
}
layer {
  name: "norm2"
  type: "LRN"
  bottom: "pool2"
  top: "norm2"
  lrn_param {
    local_size: 3
    alpha: 5e-05
    beta: 0.75
    norm_region: WITHIN_CHANNEL
  }
}
layer {
  name: "conv3"
  type: "Convolution"
  bottom: "norm2"
  top: "conv3"
  convolution_param {
    num_output: 64
    pad: 2
    kernel_size: 5
    stride: 1
    weight_filler {
      type: "gaussian"
      std: 0.01
    }
    bias_filler {
      type: "constant"
    }
  }
}
layer {
  name: "relu3"
  type: "ReLU"
  bottom: "conv3"
  top: "conv3"
}
layer {
  name: "pool3"
  type: "Pooling"
  bottom: "conv3"
  top: "pool3"
  pooling_param {
    pool: AVE
    kernel_size: 3
    stride: 2
  }
}
layer {
  name: "ip1"
  type: "InnerProduct"
  bottom: "pool3"
  top: "ip1"
  param {
    lr_mult: 1
    decay_mult: 250
  }
  param {
    lr_mult: 2
    decay_mult: 0
  }
  inner_product_param {
    num_output: 10
    weight_filler {
      type: "gaussian"
      std: 0.01
    }
    bias_filler {
      type: "constant"
    }
  }
}
layer {
  name: "loss"
  type: "SoftmaxWithLoss"
  bottom: "ip1"
  bottom: "label"
  top: "loss"
}
I0917 12:30:23.091292 21816 layer_factory.hpp:77] Creating layer svhn
I0917 12:30:23.091373 21816 db_lmdb.cpp:35] Opened lmdb ./examples/svhn/svhn_train_lmdb
I0917 12:30:23.091400 21816 net.cpp:86] Creating Layer svhn
I0917 12:30:23.091411 21816 net.cpp:382] svhn -> data
I0917 12:30:23.091430 21816 net.cpp:382] svhn -> label
I0917 12:30:23.091459 21816 data_transformer.cpp:25] Loading mean file from: ./examples/svhn/mean.binaryproto
I0917 12:30:23.093197 21816 data_layer.cpp:45] output data size: 50,3,32,32
I0917 12:30:23.096544 21816 net.cpp:124] Setting up svhn
I0917 12:30:23.096568 21816 net.cpp:131] Top shape: 50 3 32 32 (153600)
I0917 12:30:23.096576 21816 net.cpp:131] Top shape: 50 (50)
I0917 12:30:23.096580 21816 net.cpp:139] Memory required for data: 614600
I0917 12:30:23.096590 21816 layer_factory.hpp:77] Creating layer conv1
I0917 12:30:23.096611 21816 net.cpp:86] Creating Layer conv1
I0917 12:30:23.096617 21816 net.cpp:408] conv1 <- data
I0917 12:30:23.096630 21816 net.cpp:382] conv1 -> conv1
I0917 12:30:23.598865 21816 net.cpp:124] Setting up conv1
I0917 12:30:23.598889 21816 net.cpp:131] Top shape: 50 32 32 32 (1638400)
I0917 12:30:23.598893 21816 net.cpp:139] Memory required for data: 7168200
I0917 12:30:23.598915 21816 layer_factory.hpp:77] Creating layer pool1
I0917 12:30:23.598930 21816 net.cpp:86] Creating Layer pool1
I0917 12:30:23.598937 21816 net.cpp:408] pool1 <- conv1
I0917 12:30:23.598944 21816 net.cpp:382] pool1 -> pool1
I0917 12:30:23.598997 21816 net.cpp:124] Setting up pool1
I0917 12:30:23.599005 21816 net.cpp:131] Top shape: 50 32 16 16 (409600)
I0917 12:30:23.599009 21816 net.cpp:139] Memory required for data: 8806600
I0917 12:30:23.599014 21816 layer_factory.hpp:77] Creating layer relu1
I0917 12:30:23.599025 21816 net.cpp:86] Creating Layer relu1
I0917 12:30:23.599030 21816 net.cpp:408] relu1 <- pool1
I0917 12:30:23.599037 21816 net.cpp:369] relu1 -> pool1 (in-place)
I0917 12:30:23.599511 21816 net.cpp:124] Setting up relu1
I0917 12:30:23.599522 21816 net.cpp:131] Top shape: 50 32 16 16 (409600)
I0917 12:30:23.599526 21816 net.cpp:139] Memory required for data: 10445000
I0917 12:30:23.599531 21816 layer_factory.hpp:77] Creating layer norm1
I0917 12:30:23.599542 21816 net.cpp:86] Creating Layer norm1
I0917 12:30:23.599547 21816 net.cpp:408] norm1 <- pool1
I0917 12:30:23.599555 21816 net.cpp:382] norm1 -> norm1
I0917 12:30:23.601052 21816 net.cpp:124] Setting up norm1
I0917 12:30:23.601065 21816 net.cpp:131] Top shape: 50 32 16 16 (409600)
I0917 12:30:23.601069 21816 net.cpp:139] Memory required for data: 12083400
I0917 12:30:23.601074 21816 layer_factory.hpp:77] Creating layer conv2
I0917 12:30:23.601088 21816 net.cpp:86] Creating Layer conv2
I0917 12:30:23.601094 21816 net.cpp:408] conv2 <- norm1
I0917 12:30:23.601104 21816 net.cpp:382] conv2 -> conv2
I0917 12:30:23.604372 21816 net.cpp:124] Setting up conv2
I0917 12:30:23.604387 21816 net.cpp:131] Top shape: 50 32 16 16 (409600)
I0917 12:30:23.604391 21816 net.cpp:139] Memory required for data: 13721800
I0917 12:30:23.604403 21816 layer_factory.hpp:77] Creating layer relu2
I0917 12:30:23.604411 21816 net.cpp:86] Creating Layer relu2
I0917 12:30:23.604418 21816 net.cpp:408] relu2 <- conv2
I0917 12:30:23.604427 21816 net.cpp:369] relu2 -> conv2 (in-place)
I0917 12:30:23.605182 21816 net.cpp:124] Setting up relu2
I0917 12:30:23.605195 21816 net.cpp:131] Top shape: 50 32 16 16 (409600)
I0917 12:30:23.605198 21816 net.cpp:139] Memory required for data: 15360200
I0917 12:30:23.605203 21816 layer_factory.hpp:77] Creating layer pool2
I0917 12:30:23.605212 21816 net.cpp:86] Creating Layer pool2
I0917 12:30:23.605217 21816 net.cpp:408] pool2 <- conv2
I0917 12:30:23.605224 21816 net.cpp:382] pool2 -> pool2
I0917 12:30:23.605706 21816 net.cpp:124] Setting up pool2
I0917 12:30:23.605716 21816 net.cpp:131] Top shape: 50 32 8 8 (102400)
I0917 12:30:23.605720 21816 net.cpp:139] Memory required for data: 15769800
I0917 12:30:23.605724 21816 layer_factory.hpp:77] Creating layer norm2
I0917 12:30:23.605736 21816 net.cpp:86] Creating Layer norm2
I0917 12:30:23.605741 21816 net.cpp:408] norm2 <- pool2
I0917 12:30:23.605747 21816 net.cpp:382] norm2 -> norm2
I0917 12:30:23.606282 21816 net.cpp:124] Setting up norm2
I0917 12:30:23.606293 21816 net.cpp:131] Top shape: 50 32 8 8 (102400)
I0917 12:30:23.606297 21816 net.cpp:139] Memory required for data: 16179400
I0917 12:30:23.606302 21816 layer_factory.hpp:77] Creating layer conv3
I0917 12:30:23.606328 21816 net.cpp:86] Creating Layer conv3
I0917 12:30:23.606333 21816 net.cpp:408] conv3 <- norm2
I0917 12:30:23.606340 21816 net.cpp:382] conv3 -> conv3
I0917 12:30:23.608986 21816 net.cpp:124] Setting up conv3
I0917 12:30:23.609005 21816 net.cpp:131] Top shape: 50 64 8 8 (204800)
I0917 12:30:23.609009 21816 net.cpp:139] Memory required for data: 16998600
I0917 12:30:23.609025 21816 layer_factory.hpp:77] Creating layer relu3
I0917 12:30:23.609032 21816 net.cpp:86] Creating Layer relu3
I0917 12:30:23.609037 21816 net.cpp:408] relu3 <- conv3
I0917 12:30:23.609047 21816 net.cpp:369] relu3 -> conv3 (in-place)
I0917 12:30:23.609527 21816 net.cpp:124] Setting up relu3
I0917 12:30:23.609540 21816 net.cpp:131] Top shape: 50 64 8 8 (204800)
I0917 12:30:23.609544 21816 net.cpp:139] Memory required for data: 17817800
I0917 12:30:23.609549 21816 layer_factory.hpp:77] Creating layer pool3
I0917 12:30:23.609556 21816 net.cpp:86] Creating Layer pool3
I0917 12:30:23.609563 21816 net.cpp:408] pool3 <- conv3
I0917 12:30:23.609571 21816 net.cpp:382] pool3 -> pool3
I0917 12:30:23.610278 21816 net.cpp:124] Setting up pool3
I0917 12:30:23.610297 21816 net.cpp:131] Top shape: 50 64 4 4 (51200)
I0917 12:30:23.610303 21816 net.cpp:139] Memory required for data: 18022600
I0917 12:30:23.610307 21816 layer_factory.hpp:77] Creating layer ip1
I0917 12:30:23.610317 21816 net.cpp:86] Creating Layer ip1
I0917 12:30:23.610322 21816 net.cpp:408] ip1 <- pool3
I0917 12:30:23.610332 21816 net.cpp:382] ip1 -> ip1
I0917 12:30:23.611414 21816 net.cpp:124] Setting up ip1
I0917 12:30:23.611430 21816 net.cpp:131] Top shape: 50 10 (500)
I0917 12:30:23.611434 21816 net.cpp:139] Memory required for data: 18024600
I0917 12:30:23.611444 21816 layer_factory.hpp:77] Creating layer loss
I0917 12:30:23.611454 21816 net.cpp:86] Creating Layer loss
I0917 12:30:23.611461 21816 net.cpp:408] loss <- ip1
I0917 12:30:23.611470 21816 net.cpp:408] loss <- label
I0917 12:30:23.611480 21816 net.cpp:382] loss -> loss
I0917 12:30:23.611498 21816 layer_factory.hpp:77] Creating layer loss
…
I0917 12:30:23.612761 21816 solver.cpp:190] Creating test net (#0) specified by net file: examples/svhn/svhn_full_train_test.prototxt
I0917 12:30:23.612789 21816 net.cpp:296] The NetState phase (1) differed from the phase (0) specified by a rule in layer svhn
I0917 12:30:23.612884 21816 net.cpp:53] Initializing net from parameters: 
name: "SVHN_full"
state {
  phase: TEST
}
layer {
  name: "svhn"
  type: "Data"
  top: "data"
  top: "label"
  include {
    phase: TEST
  }
  transform_param {
    mean_file: "./examples/svhn/mean.binaryproto"
  }
  data_param {
    source: "./examples/svhn/svhn_test_lmdb"
    batch_size: 100
    backend: LMDB
  }
}
layer {
  name: "conv1"
  type: "Convolution"
  bottom: "data"
  top: "conv1"
  param {
    lr_mult: 1
  }
  param {
    lr_mult: 2
  }
  convolution_param {
    num_output: 32
    pad: 2
    kernel_size: 5
    stride: 1
    weight_filler {
      type: "gaussian"
      std: 0.0001
    }
    bias_filler {
      type: "constant"
    }
  }
}
layer {
  name: "pool1"
  type: "Pooling"
  bottom: "conv1"
  top: "pool1"
  pooling_param {
    pool: MAX
    kernel_size: 3
    stride: 2
  }
}
layer {
  name: "relu1"
  type: "ReLU"
  bottom: "pool1"
  top: "pool1"
}
layer {
  name: "norm1"
  type: "LRN"
  bottom: "pool1"
  top: "norm1"
  lrn_param {
    local_size: 3
    alpha: 5e-05
    beta: 0.75
    norm_region: WITHIN_CHANNEL
  }
}
layer {
  name: "conv2"
  type: "Convolution"
  bottom: "norm1"
  top: "conv2"
  param {
    lr_mult: 1
  }
  param {
    lr_mult: 2
  }
  convolution_param {
    num_output: 32
    pad: 2
    kernel_size: 5
    stride: 1
    weight_filler {
      type: "gaussian"
      std: 0.01
    }
    bias_filler {
      type: "constant"
    }
  }
}
layer {
  name: "relu2"
  type: "ReLU"
  bottom: "conv2"
  top: "conv2"
}
layer {
  name: "pool2"
  type: "Pooling"
  bottom: "conv2"
  top: "pool2"
  pooling_param {
    pool: AVE
    kernel_size: 3
    stride: 2
  }
}
layer {
  name: "norm2"
  type: "LRN"
  bottom: "pool2"
  top: "norm2"
  lrn_param {
    local_size: 3
    alpha: 5e-05
    beta: 0.75
    norm_region: WITHIN_CHANNEL
  }
}
layer {
  name: "conv3"
  type: "Convolution"
  bottom: "norm2"
  top: "conv3"
  convolution_param {
    num_output: 64
    pad: 2
    kernel_size: 5
    stride: 1
    weight_filler {
      type: "gaussian"
      std: 0.01
    }
    bias_filler {
      type: "constant"
    }
  }
}
layer {
  name: "relu3"
  type: "ReLU"
  bottom: "conv3"
  top: "conv3"
}
layer {
  name: "pool3"
  type: "Pooling"
  bottom: "conv3"
  top: "pool3"
  pooling_param {
    pool: AVE
    kernel_size: 3
    stride: 2
  }
}
layer {
  name: "ip1"
  type: "InnerProduct"
  bottom: "pool3"
  top: "ip1"
  param {
    lr_mult: 1
    decay_mult: 250
  }
  param {
    lr_mult: 2
    decay_mult: 0
  }
  inner_product_param {
    num_output: 10
    weight_filler {
      type: "gaussian"
      std: 0.01
    }
    bias_filler {
      type: "constant"
    }
  }
}
layer {
  name: "accuracy"
  type: "Accuracy"
  bottom: "ip1"
  bottom: "label"
  top: "accuracy"
  include {
    phase: TEST
  }
}
layer {
  name: "loss"
  type: "SoftmaxWithLoss"
  bottom: "ip1"
  bottom: "label"
  top: "loss"
}
I0917 12:30:23.612995 21816 layer_factory.hpp:77] Creating layer svhn
I0917 12:30:23.613049 21816 db_lmdb.cpp:35] Opened lmdb ./examples/svhn/svhn_test_lmdb
I0917 12:30:23.613065 21816 net.cpp:86] Creating Layer svhn
I0917 12:30:23.613075 21816 net.cpp:382] svhn -> data
I0917 12:30:23.613086 21816 net.cpp:382] svhn -> label
I0917 12:30:23.613096 21816 data_transformer.cpp:25] Loading mean file from: ./examples/svhn/mean.binaryproto
I0917 12:30:23.613247 21816 data_layer.cpp:45] output data size: 100,3,32,32
I0917 12:30:23.618685 21816 net.cpp:124] Setting up svhn
I0917 12:30:23.618710 21816 net.cpp:131] Top shape: 100 3 32 32 (307200)
I0917 12:30:23.618716 21816 net.cpp:131] Top shape: 100 (100)
I0917 12:30:23.618719 21816 net.cpp:139] Memory required for data: 1229200
I0917 12:30:23.618726 21816 layer_factory.hpp:77] Creating layer label_svhn_1_split
I0917 12:30:23.618738 21816 net.cpp:86] Creating Layer label_svhn_1_split
I0917 12:30:23.618744 21816 net.cpp:408] label_svhn_1_split <- label
I0917 12:30:23.618755 21816 net.cpp:382] label_svhn_1_split -> label_svhn_1_split_0
I0917 12:30:23.618769 21816 net.cpp:382] label_svhn_1_split -> label_svhn_1_split_1
I0917 12:30:23.618851 21816 net.cpp:124] Setting up label_svhn_1_split
I0917 12:30:23.618860 21816 net.cpp:131] Top shape: 100 (100)
I0917 12:30:23.618865 21816 net.cpp:131] Top shape: 100 (100)
I0917 12:30:23.618868 21816 net.cpp:139] Memory required for data: 1230000
I0917 12:30:23.618885 21816 layer_factory.hpp:77] Creating layer conv1
I0917 12:30:23.618904 21816 net.cpp:86] Creating Layer conv1
I0917 12:30:23.618909 21816 net.cpp:408] conv1 <- data
I0917 12:30:23.618921 21816 net.cpp:382] conv1 -> conv1
I0917 12:30:23.621531 21816 net.cpp:124] Setting up conv1
I0917 12:30:23.621547 21816 net.cpp:131] Top shape: 100 32 32 32 (3276800)
I0917 12:30:23.621552 21816 net.cpp:139] Memory required for data: 14337200
I0917 12:30:23.621568 21816 layer_factory.hpp:77] Creating layer pool1
I0917 12:30:23.621579 21816 net.cpp:86] Creating Layer pool1
I0917 12:30:23.621585 21816 net.cpp:408] pool1 <- conv1
I0917 12:30:23.621592 21816 net.cpp:382] pool1 -> pool1
I0917 12:30:23.621646 21816 net.cpp:124] Setting up pool1
I0917 12:30:23.621655 21816 net.cpp:131] Top shape: 100 32 16 16 (819200)
I0917 12:30:23.621661 21816 net.cpp:139] Memory required for data: 17614000
I0917 12:30:23.621666 21816 layer_factory.hpp:77] Creating layer relu1
I0917 12:30:23.621677 21816 net.cpp:86] Creating Layer relu1
I0917 12:30:23.621682 21816 net.cpp:408] relu1 <- pool1
I0917 12:30:23.621688 21816 net.cpp:369] relu1 -> pool1 (in-place)
I0917 12:30:23.622951 21816 net.cpp:124] Setting up relu1
I0917 12:30:23.622967 21816 net.cpp:131] Top shape: 100 32 16 16 (819200)
I0917 12:30:23.622972 21816 net.cpp:139] Memory required for data: 20890800
I0917 12:30:23.622977 21816 layer_factory.hpp:77] Creating layer norm1
I0917 12:30:23.622987 21816 net.cpp:86] Creating Layer norm1
I0917 12:30:23.622992 21816 net.cpp:408] norm1 <- pool1
I0917 12:30:23.623001 21816 net.cpp:382] norm1 -> norm1
I0917 12:30:23.624454 21816 net.cpp:124] Setting up norm1
I0917 12:30:23.624471 21816 net.cpp:131] Top shape: 100 32 16 16 (819200)
I0917 12:30:23.624476 21816 net.cpp:139] Memory required for data: 24167600
I0917 12:30:23.624481 21816 layer_factory.hpp:77] Creating layer conv2
I0917 12:30:23.624497 21816 net.cpp:86] Creating Layer conv2
I0917 12:30:23.624503 21816 net.cpp:408] conv2 <- norm1
I0917 12:30:23.624516 21816 net.cpp:382] conv2 -> conv2
I0917 12:30:23.628207 21816 net.cpp:124] Setting up conv2
I0917 12:30:23.628228 21816 net.cpp:131] Top shape: 100 32 16 16 (819200)
I0917 12:30:23.628233 21816 net.cpp:139] Memory required for data: 27444400
I0917 12:30:23.628248 21816 layer_factory.hpp:77] Creating layer relu2
I0917 12:30:23.628262 21816 net.cpp:86] Creating Layer relu2
I0917 12:30:23.628268 21816 net.cpp:408] relu2 <- conv2
I0917 12:30:23.628278 21816 net.cpp:369] relu2 -> conv2 (in-place)
I0917 12:30:23.629240 21816 net.cpp:124] Setting up relu2
I0917 12:30:23.629256 21816 net.cpp:131] Top shape: 100 32 16 16 (819200)
I0917 12:30:23.629261 21816 net.cpp:139] Memory required for data: 30721200
I0917 12:30:23.629266 21816 layer_factory.hpp:77] Creating layer pool2
I0917 12:30:23.629281 21816 net.cpp:86] Creating Layer pool2
I0917 12:30:23.629285 21816 net.cpp:408] pool2 <- conv2
I0917 12:30:23.629295 21816 net.cpp:382] pool2 -> pool2
I0917 12:30:23.629887 21816 net.cpp:124] Setting up pool2
I0917 12:30:23.629900 21816 net.cpp:131] Top shape: 100 32 8 8 (204800)
I0917 12:30:23.629905 21816 net.cpp:139] Memory required for data: 31540400
I0917 12:30:23.629910 21816 layer_factory.hpp:77] Creating layer norm2
I0917 12:30:23.629922 21816 net.cpp:86] Creating Layer norm2
I0917 12:30:23.629927 21816 net.cpp:408] norm2 <- pool2
I0917 12:30:23.629935 21816 net.cpp:382] norm2 -> norm2
I0917 12:30:23.630578 21816 net.cpp:124] Setting up norm2
I0917 12:30:23.630589 21816 net.cpp:131] Top shape: 100 32 8 8 (204800)
I0917 12:30:23.630594 21816 net.cpp:139] Memory required for data: 32359600
I0917 12:30:23.630599 21816 layer_factory.hpp:77] Creating layer conv3
I0917 12:30:23.630614 21816 net.cpp:86] Creating Layer conv3
I0917 12:30:23.630619 21816 net.cpp:408] conv3 <- norm2
I0917 12:30:23.630628 21816 net.cpp:382] conv3 -> conv3
I0917 12:30:23.633754 21816 net.cpp:124] Setting up conv3
I0917 12:30:23.633771 21816 net.cpp:131] Top shape: 100 64 8 8 (409600)
I0917 12:30:23.633776 21816 net.cpp:139] Memory required for data: 33998000
I0917 12:30:23.633805 21816 layer_factory.hpp:77] Creating layer relu3
I0917 12:30:23.633814 21816 net.cpp:86] Creating Layer relu3
I0917 12:30:23.633819 21816 net.cpp:408] relu3 <- conv3
I0917 12:30:23.633829 21816 net.cpp:369] relu3 -> conv3 (in-place)
I0917 12:30:23.634367 21816 net.cpp:124] Setting up relu3
I0917 12:30:23.634378 21816 net.cpp:131] Top shape: 100 64 8 8 (409600)
I0917 12:30:23.634383 21816 net.cpp:139] Memory required for data: 35636400
I0917 12:30:23.634388 21816 layer_factory.hpp:77] Creating layer pool3
I0917 12:30:23.634398 21816 net.cpp:86] Creating Layer pool3
I0917 12:30:23.634404 21816 net.cpp:408] pool3 <- conv3
I0917 12:30:23.634413 21816 net.cpp:382] pool3 -> pool3
I0917 12:30:23.635394 21816 net.cpp:124] Setting up pool3
I0917 12:30:23.635409 21816 net.cpp:131] Top shape: 100 64 4 4 (102400)
I0917 12:30:23.635414 21816 net.cpp:139] Memory required for data: 36046000
I0917 12:30:23.635421 21816 layer_factory.hpp:77] Creating layer ip1
I0917 12:30:23.635430 21816 net.cpp:86] Creating Layer ip1
I0917 12:30:23.635437 21816 net.cpp:408] ip1 <- pool3
I0917 12:30:23.635447 21816 net.cpp:382] ip1 -> ip1
I0917 12:30:23.635676 21816 net.cpp:124] Setting up ip1
I0917 12:30:23.635685 21816 net.cpp:131] Top shape: 100 10 (1000)
I0917 12:30:23.635690 21816 net.cpp:139] Memory required for data: 36050000
I0917 12:30:23.635699 21816 layer_factory.hpp:77] Creating layer ip1_ip1_0_split
I0917 12:30:23.635710 21816 net.cpp:86] Creating Layer ip1_ip1_0_split
I0917 12:30:23.635715 21816 net.cpp:408] ip1_ip1_0_split <- ip1
I0917 12:30:23.635725 21816 net.cpp:382] ip1_ip1_0_split -> ip1_ip1_0_split_0
I0917 12:30:23.635736 21816 net.cpp:382] ip1_ip1_0_split -> ip1_ip1_0_split_1
I0917 12:30:23.635782 21816 net.cpp:124] Setting up ip1_ip1_0_split
I0917 12:30:23.635792 21816 net.cpp:131] Top shape: 100 10 (1000)
I0917 12:30:23.635797 21816 net.cpp:131] Top shape: 100 10 (1000)
I0917 12:30:23.635802 21816 net.cpp:139] Memory required for data: 36058000
I0917 12:30:23.635807 21816 layer_factory.hpp:77] Creating layer accuracy
I0917 12:30:23.635815 21816 net.cpp:86] Creating Layer accuracy
I0917 12:30:23.635821 21816 net.cpp:408] accuracy <- ip1_ip1_0_split_0
I0917 12:30:23.635828 21816 net.cpp:408] accuracy <- label_svhn_1_split_0
I0917 12:30:23.635838 21816 net.cpp:382] accuracy -> accuracy
…
