…
I0917 16:33:37.818454 25272 net.cpp:296] The NetState phase (0) differed from the phase (1) specified by a rule in layer svhn
I0917 16:33:37.818473 25272 net.cpp:296] The NetState phase (0) differed from the phase (1) specified by a rule in layer accuracy
I0917 16:33:37.818600 25272 net.cpp:53] Initializing net from parameters: 
name: "SVHN_full"
state {
  phase: TRAIN
  level: 0
  stage: ""
}
layer {
  name: "svhn"
  type: "Data"
  top: "data"
  top: "label"
  include {
    phase: TRAIN
  }
  transform_param {
    mean_file: "./examples/svhn/mean.binaryproto"
  }
  data_param {
    source: "./examples/svhn/svhn_train_lmdb"
    batch_size: 50
    backend: LMDB
  }
}
layer {
  name: "conv1"
  type: "Convolution"
  bottom: "data"
  top: "conv1"
  param {
    lr_mult: 1
  }
  param {
    lr_mult: 2
  }
  convolution_param {
    num_output: 32
    pad: 2
    kernel_size: 5
    stride: 1
    weight_filler {
      type: "gaussian"
      std: 0.0001
    }
    bias_filler {
      type: "constant"
    }
  }
}
layer {
  name: "pool1"
  type: "Pooling"
  bottom: "conv1"
  top: "pool1"
  pooling_param {
    pool: MAX
    kernel_size: 3
    stride: 2
  }
}
layer {
  name: "relu1"
  type: "ReLU"
  bottom: "pool1"
  top: "pool1"
}
layer {
  name: "norm1"
  type: "LRN"
  bottom: "pool1"
  top: "norm1"
  lrn_param {
    local_size: 3
    alpha: 5e-05
    beta: 0.75
    norm_region: WITHIN_CHANNEL
  }
}
layer {
  name: "conv2"
  type: "Convolution"
  bottom: "norm1"
  top: "conv2"
  param {
    lr_mult: 1
  }
  param {
    lr_mult: 2
  }
  convolution_param {
    num_output: 32
    pad: 2
    kernel_size: 5
    stride: 1
    weight_filler {
      type: "gaussian"
      std: 0.01
    }
    bias_filler {
      type: "constant"
    }
  }
}
layer {
  name: "relu2"
  type: "ReLU"
  bottom: "conv2"
  top: "conv2"
}
layer {
  name: "pool2"
  type: "Pooling"
  bottom: "conv2"
  top: "pool2"
  pooling_param {
    pool: AVE
    kernel_size: 3
    stride: 2
  }
}
layer {
  name: "norm2"
  type: "LRN"
  bottom: "pool2"
  top: "norm2"
  lrn_param {
    local_size: 3
    alpha: 5e-05
    beta: 0.75
    norm_region: WITHIN_CHANNEL
  }
}
layer {
  name: "conv3"
  type: "Convolution"
  bottom: "norm2"
  top: "conv3"
  convolution_param {
    num_output: 64
    pad: 2
    kernel_size: 5
    stride: 1
    weight_filler {
      type: "gaussian"
      std: 0.01
    }
    bias_filler {
      type: "constant"
    }
  }
}
layer {
  name: "relu3"
  type: "ReLU"
  bottom: "conv3"
  top: "conv3"
}
layer {
  name: "pool3"
  type: "Pooling"
  bottom: "conv3"
  top: "pool3"
  pooling_param {
    pool: AVE
    kernel_size: 3
    stride: 2
  }
}
layer {
  name: "ip1"
  type: "InnerProduct"
  bottom: "pool3"
  top: "ip1"
  param {
    lr_mult: 1
    decay_mult: 250
  }
  param {
    lr_mult: 2
    decay_mult: 0
  }
  inner_product_param {
    num_output: 10
    weight_filler {
      type: "gaussian"
      std: 0.01
    }
    bias_filler {
      type: "constant"
    }
  }
}
layer {
  name: "loss"
  type: "SoftmaxWithLoss"
  bottom: "ip1"
  bottom: "label"
  top: "loss"
}
I0917 16:33:37.818682 25272 layer_factory.hpp:77] Creating layer svhn
I0917 16:33:37.818789 25272 db_lmdb.cpp:35] Opened lmdb ./examples/svhn/svhn_train_lmdb
I0917 16:33:37.818819 25272 net.cpp:86] Creating Layer svhn
I0917 16:33:37.818831 25272 net.cpp:382] svhn -> data
I0917 16:33:37.818856 25272 net.cpp:382] svhn -> label
I0917 16:33:37.818888 25272 data_transformer.cpp:25] Loading mean file from: ./examples/svhn/mean.binaryproto
I0917 16:33:37.820924 25272 data_layer.cpp:45] output data size: 50,3,32,32
I0917 16:33:37.824420 25272 net.cpp:124] Setting up svhn
I0917 16:33:37.824445 25272 net.cpp:131] Top shape: 50 3 32 32 (153600)
I0917 16:33:37.824450 25272 net.cpp:131] Top shape: 50 (50)
I0917 16:33:37.824452 25272 net.cpp:139] Memory required for data: 614600
I0917 16:33:37.824460 25272 layer_factory.hpp:77] Creating layer conv1
I0917 16:33:37.824484 25272 net.cpp:86] Creating Layer conv1
I0917 16:33:37.824492 25272 net.cpp:408] conv1 <- data
I0917 16:33:37.824508 25272 net.cpp:382] conv1 -> conv1
I0917 16:33:38.350443 25272 net.cpp:124] Setting up conv1
I0917 16:33:38.350466 25272 net.cpp:131] Top shape: 50 32 32 32 (1638400)
I0917 16:33:38.350469 25272 net.cpp:139] Memory required for data: 7168200
I0917 16:33:38.350483 25272 layer_factory.hpp:77] Creating layer pool1
I0917 16:33:38.350493 25272 net.cpp:86] Creating Layer pool1
I0917 16:33:38.350497 25272 net.cpp:408] pool1 <- conv1
I0917 16:33:38.350502 25272 net.cpp:382] pool1 -> pool1
I0917 16:33:38.350549 25272 net.cpp:124] Setting up pool1
I0917 16:33:38.350558 25272 net.cpp:131] Top shape: 50 32 16 16 (409600)
I0917 16:33:38.350561 25272 net.cpp:139] Memory required for data: 8806600
I0917 16:33:38.350564 25272 layer_factory.hpp:77] Creating layer relu1
I0917 16:33:38.350572 25272 net.cpp:86] Creating Layer relu1
I0917 16:33:38.350576 25272 net.cpp:408] relu1 <- pool1
I0917 16:33:38.350581 25272 net.cpp:369] relu1 -> pool1 (in-place)
I0917 16:33:38.351207 25272 net.cpp:124] Setting up relu1
I0917 16:33:38.351220 25272 net.cpp:131] Top shape: 50 32 16 16 (409600)
I0917 16:33:38.351225 25272 net.cpp:139] Memory required for data: 10445000
I0917 16:33:38.351230 25272 layer_factory.hpp:77] Creating layer norm1
I0917 16:33:38.351245 25272 net.cpp:86] Creating Layer norm1
I0917 16:33:38.351253 25272 net.cpp:408] norm1 <- pool1
I0917 16:33:38.351261 25272 net.cpp:382] norm1 -> norm1
I0917 16:33:38.352906 25272 net.cpp:124] Setting up norm1
I0917 16:33:38.352918 25272 net.cpp:131] Top shape: 50 32 16 16 (409600)
I0917 16:33:38.352921 25272 net.cpp:139] Memory required for data: 12083400
I0917 16:33:38.352924 25272 layer_factory.hpp:77] Creating layer conv2
I0917 16:33:38.352937 25272 net.cpp:86] Creating Layer conv2
I0917 16:33:38.352943 25272 net.cpp:408] conv2 <- norm1
I0917 16:33:38.352953 25272 net.cpp:382] conv2 -> conv2
I0917 16:33:38.356364 25272 net.cpp:124] Setting up conv2
I0917 16:33:38.356387 25272 net.cpp:131] Top shape: 50 32 16 16 (409600)
I0917 16:33:38.356391 25272 net.cpp:139] Memory required for data: 13721800
I0917 16:33:38.356403 25272 layer_factory.hpp:77] Creating layer relu2
I0917 16:33:38.356413 25272 net.cpp:86] Creating Layer relu2
I0917 16:33:38.356420 25272 net.cpp:408] relu2 <- conv2
I0917 16:33:38.356427 25272 net.cpp:369] relu2 -> conv2 (in-place)
I0917 16:33:38.357486 25272 net.cpp:124] Setting up relu2
I0917 16:33:38.357511 25272 net.cpp:131] Top shape: 50 32 16 16 (409600)
I0917 16:33:38.357517 25272 net.cpp:139] Memory required for data: 15360200
I0917 16:33:38.357522 25272 layer_factory.hpp:77] Creating layer pool2
I0917 16:33:38.357532 25272 net.cpp:86] Creating Layer pool2
I0917 16:33:38.357538 25272 net.cpp:408] pool2 <- conv2
I0917 16:33:38.357547 25272 net.cpp:382] pool2 -> pool2
I0917 16:33:38.358237 25272 net.cpp:124] Setting up pool2
I0917 16:33:38.358252 25272 net.cpp:131] Top shape: 50 32 8 8 (102400)
I0917 16:33:38.358258 25272 net.cpp:139] Memory required for data: 15769800
I0917 16:33:38.358263 25272 layer_factory.hpp:77] Creating layer norm2
I0917 16:33:38.358273 25272 net.cpp:86] Creating Layer norm2
I0917 16:33:38.358280 25272 net.cpp:408] norm2 <- pool2
I0917 16:33:38.358290 25272 net.cpp:382] norm2 -> norm2
I0917 16:33:38.359118 25272 net.cpp:124] Setting up norm2
I0917 16:33:38.359136 25272 net.cpp:131] Top shape: 50 32 8 8 (102400)
I0917 16:33:38.359140 25272 net.cpp:139] Memory required for data: 16179400
I0917 16:33:38.359143 25272 layer_factory.hpp:77] Creating layer conv3
I0917 16:33:38.359174 25272 net.cpp:86] Creating Layer conv3
I0917 16:33:38.359181 25272 net.cpp:408] conv3 <- norm2
I0917 16:33:38.359191 25272 net.cpp:382] conv3 -> conv3
I0917 16:33:38.363828 25272 net.cpp:124] Setting up conv3
I0917 16:33:38.363847 25272 net.cpp:131] Top shape: 50 64 8 8 (204800)
I0917 16:33:38.363850 25272 net.cpp:139] Memory required for data: 16998600
I0917 16:33:38.363862 25272 layer_factory.hpp:77] Creating layer relu3
I0917 16:33:38.363871 25272 net.cpp:86] Creating Layer relu3
I0917 16:33:38.363878 25272 net.cpp:408] relu3 <- conv3
I0917 16:33:38.363884 25272 net.cpp:369] relu3 -> conv3 (in-place)
I0917 16:33:38.364508 25272 net.cpp:124] Setting up relu3
I0917 16:33:38.364521 25272 net.cpp:131] Top shape: 50 64 8 8 (204800)
I0917 16:33:38.364523 25272 net.cpp:139] Memory required for data: 17817800
I0917 16:33:38.364526 25272 layer_factory.hpp:77] Creating layer pool3
I0917 16:33:38.364534 25272 net.cpp:86] Creating Layer pool3
I0917 16:33:38.364539 25272 net.cpp:408] pool3 <- conv3
I0917 16:33:38.364548 25272 net.cpp:382] pool3 -> pool3
I0917 16:33:38.365232 25272 net.cpp:124] Setting up pool3
I0917 16:33:38.365244 25272 net.cpp:131] Top shape: 50 64 4 4 (51200)
I0917 16:33:38.365248 25272 net.cpp:139] Memory required for data: 18022600
I0917 16:33:38.365252 25272 layer_factory.hpp:77] Creating layer ip1
I0917 16:33:38.365262 25272 net.cpp:86] Creating Layer ip1
I0917 16:33:38.365268 25272 net.cpp:408] ip1 <- pool3
I0917 16:33:38.365278 25272 net.cpp:382] ip1 -> ip1
I0917 16:33:38.366480 25272 net.cpp:124] Setting up ip1
I0917 16:33:38.366492 25272 net.cpp:131] Top shape: 50 10 (500)
I0917 16:33:38.366495 25272 net.cpp:139] Memory required for data: 18024600
I0917 16:33:38.366502 25272 layer_factory.hpp:77] Creating layer loss
I0917 16:33:38.366513 25272 net.cpp:86] Creating Layer loss
I0917 16:33:38.366519 25272 net.cpp:408] loss <- ip1
I0917 16:33:38.366525 25272 net.cpp:408] loss <- label
I0917 16:33:38.366536 25272 net.cpp:382] loss -> loss
I0917 16:33:38.366554 25272 layer_factory.hpp:77] Creating layer loss
…
I0917 16:33:38.368118 25272 solver.cpp:190] Creating test net (#0) specified by net file: examples/svhn/svhn_full_train_test.prototxt
I0917 16:33:38.368154 25272 net.cpp:296] The NetState phase (1) differed from the phase (0) specified by a rule in layer svhn
I0917 16:33:38.368317 25272 net.cpp:53] Initializing net from parameters: 
name: "SVHN_full"
state {
  phase: TEST
}
layer {
  name: "svhn"
  type: "Data"
  top: "data"
  top: "label"
  include {
    phase: TEST
  }
  transform_param {
    mean_file: "./examples/svhn/mean.binaryproto"
  }
  data_param {
    source: "./examples/svhn/svhn_test_lmdb"
    batch_size: 100
    backend: LMDB
  }
}
layer {
  name: "conv1"
  type: "Convolution"
  bottom: "data"
  top: "conv1"
  param {
    lr_mult: 1
  }
  param {
    lr_mult: 2
  }
  convolution_param {
    num_output: 32
    pad: 2
    kernel_size: 5
    stride: 1
    weight_filler {
      type: "gaussian"
      std: 0.0001
    }
    bias_filler {
      type: "constant"
    }
  }
}
layer {
  name: "pool1"
  type: "Pooling"
  bottom: "conv1"
  top: "pool1"
  pooling_param {
    pool: MAX
    kernel_size: 3
    stride: 2
  }
}
layer {
  name: "relu1"
  type: "ReLU"
  bottom: "pool1"
  top: "pool1"
}
layer {
  name: "norm1"
  type: "LRN"
  bottom: "pool1"
  top: "norm1"
  lrn_param {
    local_size: 3
    alpha: 5e-05
    beta: 0.75
    norm_region: WITHIN_CHANNEL
  }
}
layer {
  name: "conv2"
  type: "Convolution"
  bottom: "norm1"
  top: "conv2"
  param {
    lr_mult: 1
  }
  param {
    lr_mult: 2
  }
  convolution_param {
    num_output: 32
    pad: 2
    kernel_size: 5
    stride: 1
    weight_filler {
      type: "gaussian"
      std: 0.01
    }
    bias_filler {
      type: "constant"
    }
  }
}
layer {
  name: "relu2"
  type: "ReLU"
  bottom: "conv2"
  top: "conv2"
}
layer {
  name: "pool2"
  type: "Pooling"
  bottom: "conv2"
  top: "pool2"
  pooling_param {
    pool: AVE
    kernel_size: 3
    stride: 2
  }
}
layer {
  name: "norm2"
  type: "LRN"
  bottom: "pool2"
  top: "norm2"
  lrn_param {
    local_size: 3
    alpha: 5e-05
    beta: 0.75
    norm_region: WITHIN_CHANNEL
  }
}
layer {
  name: "conv3"
  type: "Convolution"
  bottom: "norm2"
  top: "conv3"
  convolution_param {
    num_output: 64
    pad: 2
    kernel_size: 5
    stride: 1
    weight_filler {
      type: "gaussian"
      std: 0.01
    }
    bias_filler {
      type: "constant"
    }
  }
}
layer {
  name: "relu3"
  type: "ReLU"
  bottom: "conv3"
  top: "conv3"
}
layer {
  name: "pool3"
  type: "Pooling"
  bottom: "conv3"
  top: "pool3"
  pooling_param {
    pool: AVE
    kernel_size: 3
    stride: 2
  }
}
layer {
  name: "ip1"
  type: "InnerProduct"
  bottom: "pool3"
  top: "ip1"
  param {
    lr_mult: 1
    decay_mult: 250
  }
  param {
    lr_mult: 2
    decay_mult: 0
  }
  inner_product_param {
    num_output: 10
    weight_filler {
      type: "gaussian"
      std: 0.01
    }
    bias_filler {
      type: "constant"
    }
  }
}
layer {
  name: "accuracy"
  type: "Accuracy"
  bottom: "ip1"
  bottom: "label"
  top: "accuracy"
  include {
    phase: TEST
  }
}
layer {
  name: "loss"
  type: "SoftmaxWithLoss"
  bottom: "ip1"
  bottom: "label"
  top: "loss"
}
I0917 16:33:38.368435 25272 layer_factory.hpp:77] Creating layer svhn
I0917 16:33:38.368505 25272 db_lmdb.cpp:35] Opened lmdb ./examples/svhn/svhn_test_lmdb
I0917 16:33:38.368525 25272 net.cpp:86] Creating Layer svhn
I0917 16:33:38.368535 25272 net.cpp:382] svhn -> data
I0917 16:33:38.368549 25272 net.cpp:382] svhn -> label
I0917 16:33:38.368564 25272 data_transformer.cpp:25] Loading mean file from: ./examples/svhn/mean.binaryproto
I0917 16:33:38.368772 25272 data_layer.cpp:45] output data size: 100,3,32,32
I0917 16:33:38.375236 25272 net.cpp:124] Setting up svhn
I0917 16:33:38.375258 25272 net.cpp:131] Top shape: 100 3 32 32 (307200)
I0917 16:33:38.375262 25272 net.cpp:131] Top shape: 100 (100)
I0917 16:33:38.375265 25272 net.cpp:139] Memory required for data: 1229200
I0917 16:33:38.375270 25272 layer_factory.hpp:77] Creating layer label_svhn_1_split
I0917 16:33:38.375280 25272 net.cpp:86] Creating Layer label_svhn_1_split
I0917 16:33:38.375284 25272 net.cpp:408] label_svhn_1_split <- label
I0917 16:33:38.375291 25272 net.cpp:382] label_svhn_1_split -> label_svhn_1_split_0
I0917 16:33:38.375303 25272 net.cpp:382] label_svhn_1_split -> label_svhn_1_split_1
I0917 16:33:38.375355 25272 net.cpp:124] Setting up label_svhn_1_split
I0917 16:33:38.375361 25272 net.cpp:131] Top shape: 100 (100)
I0917 16:33:38.375366 25272 net.cpp:131] Top shape: 100 (100)
I0917 16:33:38.375370 25272 net.cpp:139] Memory required for data: 1230000
I0917 16:33:38.375387 25272 layer_factory.hpp:77] Creating layer conv1
I0917 16:33:38.375401 25272 net.cpp:86] Creating Layer conv1
I0917 16:33:38.375404 25272 net.cpp:408] conv1 <- data
I0917 16:33:38.375411 25272 net.cpp:382] conv1 -> conv1
I0917 16:33:38.378371 25272 net.cpp:124] Setting up conv1
I0917 16:33:38.378388 25272 net.cpp:131] Top shape: 100 32 32 32 (3276800)
I0917 16:33:38.378392 25272 net.cpp:139] Memory required for data: 14337200
I0917 16:33:38.378403 25272 layer_factory.hpp:77] Creating layer pool1
I0917 16:33:38.378412 25272 net.cpp:86] Creating Layer pool1
I0917 16:33:38.378414 25272 net.cpp:408] pool1 <- conv1
I0917 16:33:38.378420 25272 net.cpp:382] pool1 -> pool1
I0917 16:33:38.378466 25272 net.cpp:124] Setting up pool1
I0917 16:33:38.378474 25272 net.cpp:131] Top shape: 100 32 16 16 (819200)
I0917 16:33:38.378477 25272 net.cpp:139] Memory required for data: 17614000
I0917 16:33:38.378480 25272 layer_factory.hpp:77] Creating layer relu1
I0917 16:33:38.378487 25272 net.cpp:86] Creating Layer relu1
I0917 16:33:38.378491 25272 net.cpp:408] relu1 <- pool1
I0917 16:33:38.378499 25272 net.cpp:369] relu1 -> pool1 (in-place)
I0917 16:33:38.381209 25272 net.cpp:124] Setting up relu1
I0917 16:33:38.381222 25272 net.cpp:131] Top shape: 100 32 16 16 (819200)
I0917 16:33:38.381225 25272 net.cpp:139] Memory required for data: 20890800
I0917 16:33:38.381228 25272 layer_factory.hpp:77] Creating layer norm1
I0917 16:33:38.381237 25272 net.cpp:86] Creating Layer norm1
I0917 16:33:38.381242 25272 net.cpp:408] norm1 <- pool1
I0917 16:33:38.381247 25272 net.cpp:382] norm1 -> norm1
I0917 16:33:38.382593 25272 net.cpp:124] Setting up norm1
I0917 16:33:38.382606 25272 net.cpp:131] Top shape: 100 32 16 16 (819200)
I0917 16:33:38.382609 25272 net.cpp:139] Memory required for data: 24167600
I0917 16:33:38.382612 25272 layer_factory.hpp:77] Creating layer conv2
I0917 16:33:38.382623 25272 net.cpp:86] Creating Layer conv2
I0917 16:33:38.382628 25272 net.cpp:408] conv2 <- norm1
I0917 16:33:38.382635 25272 net.cpp:382] conv2 -> conv2
I0917 16:33:38.386288 25272 net.cpp:124] Setting up conv2
I0917 16:33:38.386308 25272 net.cpp:131] Top shape: 100 32 16 16 (819200)
I0917 16:33:38.386312 25272 net.cpp:139] Memory required for data: 27444400
I0917 16:33:38.386325 25272 layer_factory.hpp:77] Creating layer relu2
I0917 16:33:38.386337 25272 net.cpp:86] Creating Layer relu2
I0917 16:33:38.386343 25272 net.cpp:408] relu2 <- conv2
I0917 16:33:38.386350 25272 net.cpp:369] relu2 -> conv2 (in-place)
I0917 16:33:38.387418 25272 net.cpp:124] Setting up relu2
I0917 16:33:38.387434 25272 net.cpp:131] Top shape: 100 32 16 16 (819200)
I0917 16:33:38.387436 25272 net.cpp:139] Memory required for data: 30721200
I0917 16:33:38.387440 25272 layer_factory.hpp:77] Creating layer pool2
I0917 16:33:38.387451 25272 net.cpp:86] Creating Layer pool2
I0917 16:33:38.387457 25272 net.cpp:408] pool2 <- conv2
I0917 16:33:38.387464 25272 net.cpp:382] pool2 -> pool2
I0917 16:33:38.388029 25272 net.cpp:124] Setting up pool2
I0917 16:33:38.388039 25272 net.cpp:131] Top shape: 100 32 8 8 (204800)
I0917 16:33:38.388042 25272 net.cpp:139] Memory required for data: 31540400
I0917 16:33:38.388046 25272 layer_factory.hpp:77] Creating layer norm2
I0917 16:33:38.388051 25272 net.cpp:86] Creating Layer norm2
I0917 16:33:38.388054 25272 net.cpp:408] norm2 <- pool2
I0917 16:33:38.388062 25272 net.cpp:382] norm2 -> norm2
I0917 16:33:38.388710 25272 net.cpp:124] Setting up norm2
I0917 16:33:38.388721 25272 net.cpp:131] Top shape: 100 32 8 8 (204800)
I0917 16:33:38.388725 25272 net.cpp:139] Memory required for data: 32359600
I0917 16:33:38.388727 25272 layer_factory.hpp:77] Creating layer conv3
I0917 16:33:38.388738 25272 net.cpp:86] Creating Layer conv3
I0917 16:33:38.388743 25272 net.cpp:408] conv3 <- norm2
I0917 16:33:38.388748 25272 net.cpp:382] conv3 -> conv3
I0917 16:33:38.392323 25272 net.cpp:124] Setting up conv3
I0917 16:33:38.392341 25272 net.cpp:131] Top shape: 100 64 8 8 (409600)
I0917 16:33:38.392345 25272 net.cpp:139] Memory required for data: 33998000
I0917 16:33:38.392374 25272 layer_factory.hpp:77] Creating layer relu3
I0917 16:33:38.392382 25272 net.cpp:86] Creating Layer relu3
I0917 16:33:38.392386 25272 net.cpp:408] relu3 <- conv3
I0917 16:33:38.392392 25272 net.cpp:369] relu3 -> conv3 (in-place)
I0917 16:33:38.392959 25272 net.cpp:124] Setting up relu3
I0917 16:33:38.392972 25272 net.cpp:131] Top shape: 100 64 8 8 (409600)
I0917 16:33:38.392976 25272 net.cpp:139] Memory required for data: 35636400
I0917 16:33:38.392979 25272 layer_factory.hpp:77] Creating layer pool3
I0917 16:33:38.392985 25272 net.cpp:86] Creating Layer pool3
I0917 16:33:38.392988 25272 net.cpp:408] pool3 <- conv3
I0917 16:33:38.392995 25272 net.cpp:382] pool3 -> pool3
I0917 16:33:38.393980 25272 net.cpp:124] Setting up pool3
I0917 16:33:38.393996 25272 net.cpp:131] Top shape: 100 64 4 4 (102400)
I0917 16:33:38.393998 25272 net.cpp:139] Memory required for data: 36046000
I0917 16:33:38.394002 25272 layer_factory.hpp:77] Creating layer ip1
I0917 16:33:38.394016 25272 net.cpp:86] Creating Layer ip1
I0917 16:33:38.394024 25272 net.cpp:408] ip1 <- pool3
I0917 16:33:38.394034 25272 net.cpp:382] ip1 -> ip1
I0917 16:33:38.394289 25272 net.cpp:124] Setting up ip1
I0917 16:33:38.394304 25272 net.cpp:131] Top shape: 100 10 (1000)
I0917 16:33:38.394309 25272 net.cpp:139] Memory required for data: 36050000
I0917 16:33:38.394318 25272 layer_factory.hpp:77] Creating layer ip1_ip1_0_split
I0917 16:33:38.394328 25272 net.cpp:86] Creating Layer ip1_ip1_0_split
I0917 16:33:38.394335 25272 net.cpp:408] ip1_ip1_0_split <- ip1
I0917 16:33:38.394341 25272 net.cpp:382] ip1_ip1_0_split -> ip1_ip1_0_split_0
I0917 16:33:38.394351 25272 net.cpp:382] ip1_ip1_0_split -> ip1_ip1_0_split_1
I0917 16:33:38.394412 25272 net.cpp:124] Setting up ip1_ip1_0_split
I0917 16:33:38.394424 25272 net.cpp:131] Top shape: 100 10 (1000)
I0917 16:33:38.394430 25272 net.cpp:131] Top shape: 100 10 (1000)
I0917 16:33:38.394434 25272 net.cpp:139] Memory required for data: 36058000
I0917 16:33:38.394438 25272 layer_factory.hpp:77] Creating layer accuracy
I0917 16:33:38.394448 25272 net.cpp:86] Creating Layer accuracy
I0917 16:33:38.394454 25272 net.cpp:408] accuracy <- ip1_ip1_0_split_0
I0917 16:33:38.394460 25272 net.cpp:408] accuracy <- label_svhn_1_split_0
I0917 16:33:38.394467 25272 net.cpp:382] accuracy -> accuracy
…
