…
I0917 09:47:42.309963 19945 net.cpp:296] The NetState phase (0) differed from the phase (1) specified by a rule in layer svhn
I0917 09:47:42.309988 19945 net.cpp:296] The NetState phase (0) differed from the phase (1) specified by a rule in layer accuracy
I0917 09:47:42.310103 19945 net.cpp:53] Initializing net from parameters: 
name: "SVHN_full"
state {
  phase: TRAIN
  level: 0
  stage: ""
}
layer {
  name: "svhn"
  type: "Data"
  top: "data"
  top: "label"
  include {
    phase: TRAIN
  }
  transform_param {
    mean_file: "./examples/svhn/mean.binaryproto"
  }
  data_param {
    source: "./examples/svhn/svhn_train_lmdb"
    batch_size: 50
    backend: LMDB
  }
}
layer {
  name: "conv1"
  type: "Convolution"
  bottom: "data"
  top: "conv1"
  param {
    lr_mult: 1
  }
  param {
    lr_mult: 2
  }
  convolution_param {
    num_output: 32
    pad: 2
    kernel_size: 5
    stride: 1
    weight_filler {
      type: "gaussian"
      std: 0.0001
    }
    bias_filler {
      type: "constant"
    }
  }
}
layer {
  name: "pool1"
  type: "Pooling"
  bottom: "conv1"
  top: "pool1"
  pooling_param {
    pool: MAX
    kernel_size: 3
    stride: 2
  }
}
layer {
  name: "relu1"
  type: "ReLU"
  bottom: "pool1"
  top: "pool1"
}
layer {
  name: "norm1"
  type: "LRN"
  bottom: "pool1"
  top: "norm1"
  lrn_param {
    local_size: 3
    alpha: 5e-05
    beta: 0.75
    norm_region: WITHIN_CHANNEL
  }
}
layer {
  name: "conv2"
  type: "Convolution"
  bottom: "norm1"
  top: "conv2"
  param {
    lr_mult: 1
  }
  param {
    lr_mult: 2
  }
  convolution_param {
    num_output: 32
    pad: 2
    kernel_size: 5
    stride: 1
    weight_filler {
      type: "gaussian"
      std: 0.01
    }
    bias_filler {
      type: "constant"
    }
  }
}
layer {
  name: "relu2"
  type: "ReLU"
  bottom: "conv2"
  top: "conv2"
}
layer {
  name: "pool2"
  type: "Pooling"
  bottom: "conv2"
  top: "pool2"
  pooling_param {
    pool: AVE
    kernel_size: 3
    stride: 2
  }
}
layer {
  name: "norm2"
  type: "LRN"
  bottom: "pool2"
  top: "norm2"
  lrn_param {
    local_size: 3
    alpha: 5e-05
    beta: 0.75
    norm_region: WITHIN_CHANNEL
  }
}
layer {
  name: "conv3"
  type: "Convolution"
  bottom: "norm2"
  top: "conv3"
  convolution_param {
    num_output: 64
    pad: 2
    kernel_size: 5
    stride: 1
    weight_filler {
      type: "gaussian"
      std: 0.01
    }
    bias_filler {
      type: "constant"
    }
  }
}
layer {
  name: "relu3"
  type: "ReLU"
  bottom: "conv3"
  top: "conv3"
}
layer {
  name: "pool3"
  type: "Pooling"
  bottom: "conv3"
  top: "pool3"
  pooling_param {
    pool: AVE
    kernel_size: 3
    stride: 2
  }
}
layer {
  name: "ip1"
  type: "InnerProduct"
  bottom: "pool3"
  top: "ip1"
  param {
    lr_mult: 1
    decay_mult: 250
  }
  param {
    lr_mult: 2
    decay_mult: 0
  }
  inner_product_param {
    num_output: 10
    weight_filler {
      type: "gaussian"
      std: 0.01
    }
    bias_filler {
      type: "constant"
    }
  }
}
layer {
  name: "loss"
  type: "SoftmaxWithLoss"
  bottom: "ip1"
  bottom: "label"
  top: "loss"
}
I0917 09:47:42.310180 19945 layer_factory.hpp:77] Creating layer svhn
I0917 09:47:42.310272 19945 db_lmdb.cpp:35] Opened lmdb ./examples/svhn/svhn_train_lmdb
I0917 09:47:42.310307 19945 net.cpp:86] Creating Layer svhn
I0917 09:47:42.310318 19945 net.cpp:382] svhn -> data
I0917 09:47:42.310343 19945 net.cpp:382] svhn -> label
I0917 09:47:42.310372 19945 data_transformer.cpp:25] Loading mean file from: ./examples/svhn/mean.binaryproto
I0917 09:47:42.312649 19945 data_layer.cpp:45] output data size: 50,3,32,32
I0917 09:47:42.316319 19945 net.cpp:124] Setting up svhn
I0917 09:47:42.316352 19945 net.cpp:131] Top shape: 50 3 32 32 (153600)
I0917 09:47:42.316361 19945 net.cpp:131] Top shape: 50 (50)
I0917 09:47:42.316365 19945 net.cpp:139] Memory required for data: 614600
I0917 09:47:42.316376 19945 layer_factory.hpp:77] Creating layer conv1
I0917 09:47:42.316403 19945 net.cpp:86] Creating Layer conv1
I0917 09:47:42.316413 19945 net.cpp:408] conv1 <- data
I0917 09:47:42.316429 19945 net.cpp:382] conv1 -> conv1
I0917 09:47:42.878584 19945 net.cpp:124] Setting up conv1
I0917 09:47:42.878612 19945 net.cpp:131] Top shape: 50 32 32 32 (1638400)
I0917 09:47:42.878615 19945 net.cpp:139] Memory required for data: 7168200
I0917 09:47:42.878633 19945 layer_factory.hpp:77] Creating layer pool1
I0917 09:47:42.878644 19945 net.cpp:86] Creating Layer pool1
I0917 09:47:42.878648 19945 net.cpp:408] pool1 <- conv1
I0917 09:47:42.878655 19945 net.cpp:382] pool1 -> pool1
I0917 09:47:42.878703 19945 net.cpp:124] Setting up pool1
I0917 09:47:42.878710 19945 net.cpp:131] Top shape: 50 32 16 16 (409600)
I0917 09:47:42.878713 19945 net.cpp:139] Memory required for data: 8806600
I0917 09:47:42.878716 19945 layer_factory.hpp:77] Creating layer relu1
I0917 09:47:42.878721 19945 net.cpp:86] Creating Layer relu1
I0917 09:47:42.878724 19945 net.cpp:408] relu1 <- pool1
I0917 09:47:42.878728 19945 net.cpp:369] relu1 -> pool1 (in-place)
I0917 09:47:42.879328 19945 net.cpp:124] Setting up relu1
I0917 09:47:42.879340 19945 net.cpp:131] Top shape: 50 32 16 16 (409600)
I0917 09:47:42.879343 19945 net.cpp:139] Memory required for data: 10445000
I0917 09:47:42.879348 19945 layer_factory.hpp:77] Creating layer norm1
I0917 09:47:42.879359 19945 net.cpp:86] Creating Layer norm1
I0917 09:47:42.879361 19945 net.cpp:408] norm1 <- pool1
I0917 09:47:42.879366 19945 net.cpp:382] norm1 -> norm1
I0917 09:47:42.881471 19945 net.cpp:124] Setting up norm1
I0917 09:47:42.881492 19945 net.cpp:131] Top shape: 50 32 16 16 (409600)
I0917 09:47:42.881497 19945 net.cpp:139] Memory required for data: 12083400
I0917 09:47:42.881503 19945 layer_factory.hpp:77] Creating layer conv2
I0917 09:47:42.881520 19945 net.cpp:86] Creating Layer conv2
I0917 09:47:42.881526 19945 net.cpp:408] conv2 <- norm1
I0917 09:47:42.881539 19945 net.cpp:382] conv2 -> conv2
I0917 09:47:42.886607 19945 net.cpp:124] Setting up conv2
I0917 09:47:42.886631 19945 net.cpp:131] Top shape: 50 32 16 16 (409600)
I0917 09:47:42.886636 19945 net.cpp:139] Memory required for data: 13721800
I0917 09:47:42.886652 19945 layer_factory.hpp:77] Creating layer relu2
I0917 09:47:42.886667 19945 net.cpp:86] Creating Layer relu2
I0917 09:47:42.886673 19945 net.cpp:408] relu2 <- conv2
I0917 09:47:42.886682 19945 net.cpp:369] relu2 -> conv2 (in-place)
I0917 09:47:42.887909 19945 net.cpp:124] Setting up relu2
I0917 09:47:42.887926 19945 net.cpp:131] Top shape: 50 32 16 16 (409600)
I0917 09:47:42.887933 19945 net.cpp:139] Memory required for data: 15360200
I0917 09:47:42.887938 19945 layer_factory.hpp:77] Creating layer pool2
I0917 09:47:42.887948 19945 net.cpp:86] Creating Layer pool2
I0917 09:47:42.887955 19945 net.cpp:408] pool2 <- conv2
I0917 09:47:42.887967 19945 net.cpp:382] pool2 -> pool2
I0917 09:47:42.888784 19945 net.cpp:124] Setting up pool2
I0917 09:47:42.888799 19945 net.cpp:131] Top shape: 50 32 8 8 (102400)
I0917 09:47:42.888808 19945 net.cpp:139] Memory required for data: 15769800
I0917 09:47:42.888813 19945 layer_factory.hpp:77] Creating layer norm2
I0917 09:47:42.888825 19945 net.cpp:86] Creating Layer norm2
I0917 09:47:42.888831 19945 net.cpp:408] norm2 <- pool2
I0917 09:47:42.888842 19945 net.cpp:382] norm2 -> norm2
I0917 09:47:42.889751 19945 net.cpp:124] Setting up norm2
I0917 09:47:42.889766 19945 net.cpp:131] Top shape: 50 32 8 8 (102400)
I0917 09:47:42.889773 19945 net.cpp:139] Memory required for data: 16179400
I0917 09:47:42.889780 19945 layer_factory.hpp:77] Creating layer conv3
I0917 09:47:42.889812 19945 net.cpp:86] Creating Layer conv3
I0917 09:47:42.889820 19945 net.cpp:408] conv3 <- norm2
I0917 09:47:42.889833 19945 net.cpp:382] conv3 -> conv3
I0917 09:47:42.894170 19945 net.cpp:124] Setting up conv3
I0917 09:47:42.894189 19945 net.cpp:131] Top shape: 50 64 8 8 (204800)
I0917 09:47:42.894196 19945 net.cpp:139] Memory required for data: 16998600
I0917 09:47:42.894212 19945 layer_factory.hpp:77] Creating layer relu3
I0917 09:47:42.894222 19945 net.cpp:86] Creating Layer relu3
I0917 09:47:42.894227 19945 net.cpp:408] relu3 <- conv3
I0917 09:47:42.894235 19945 net.cpp:369] relu3 -> conv3 (in-place)
I0917 09:47:42.894978 19945 net.cpp:124] Setting up relu3
I0917 09:47:42.894991 19945 net.cpp:131] Top shape: 50 64 8 8 (204800)
I0917 09:47:42.894997 19945 net.cpp:139] Memory required for data: 17817800
I0917 09:47:42.895002 19945 layer_factory.hpp:77] Creating layer pool3
I0917 09:47:42.895010 19945 net.cpp:86] Creating Layer pool3
I0917 09:47:42.895025 19945 net.cpp:408] pool3 <- conv3
I0917 09:47:42.895035 19945 net.cpp:382] pool3 -> pool3
I0917 09:47:42.895843 19945 net.cpp:124] Setting up pool3
I0917 09:47:42.895858 19945 net.cpp:131] Top shape: 50 64 4 4 (51200)
I0917 09:47:42.895862 19945 net.cpp:139] Memory required for data: 18022600
I0917 09:47:42.895869 19945 layer_factory.hpp:77] Creating layer ip1
I0917 09:47:42.895880 19945 net.cpp:86] Creating Layer ip1
I0917 09:47:42.895886 19945 net.cpp:408] ip1 <- pool3
I0917 09:47:42.895898 19945 net.cpp:382] ip1 -> ip1
I0917 09:47:42.897310 19945 net.cpp:124] Setting up ip1
I0917 09:47:42.897328 19945 net.cpp:131] Top shape: 50 10 (500)
I0917 09:47:42.897332 19945 net.cpp:139] Memory required for data: 18024600
I0917 09:47:42.897341 19945 layer_factory.hpp:77] Creating layer loss
I0917 09:47:42.897352 19945 net.cpp:86] Creating Layer loss
I0917 09:47:42.897357 19945 net.cpp:408] loss <- ip1
I0917 09:47:42.897363 19945 net.cpp:408] loss <- label
I0917 09:47:42.897374 19945 net.cpp:382] loss -> loss
I0917 09:47:42.897392 19945 layer_factory.hpp:77] Creating layer loss
…
I0917 09:47:42.899164 19945 solver.cpp:190] Creating test net (#0) specified by net file: examples/svhn/svhn_full_train_test.prototxt
I0917 09:47:42.899200 19945 net.cpp:296] The NetState phase (1) differed from the phase (0) specified by a rule in layer svhn
I0917 09:47:42.899336 19945 net.cpp:53] Initializing net from parameters: 
name: "SVHN_full"
state {
  phase: TEST
}
layer {
  name: "svhn"
  type: "Data"
  top: "data"
  top: "label"
  include {
    phase: TEST
  }
  transform_param {
    mean_file: "./examples/svhn/mean.binaryproto"
  }
  data_param {
    source: "./examples/svhn/svhn_test_lmdb"
    batch_size: 100
    backend: LMDB
  }
}
layer {
  name: "conv1"
  type: "Convolution"
  bottom: "data"
  top: "conv1"
  param {
    lr_mult: 1
  }
  param {
    lr_mult: 2
  }
  convolution_param {
    num_output: 32
    pad: 2
    kernel_size: 5
    stride: 1
    weight_filler {
      type: "gaussian"
      std: 0.0001
    }
    bias_filler {
      type: "constant"
    }
  }
}
layer {
  name: "pool1"
  type: "Pooling"
  bottom: "conv1"
  top: "pool1"
  pooling_param {
    pool: MAX
    kernel_size: 3
    stride: 2
  }
}
layer {
  name: "relu1"
  type: "ReLU"
  bottom: "pool1"
  top: "pool1"
}
layer {
  name: "norm1"
  type: "LRN"
  bottom: "pool1"
  top: "norm1"
  lrn_param {
    local_size: 3
    alpha: 5e-05
    beta: 0.75
    norm_region: WITHIN_CHANNEL
  }
}
layer {
  name: "conv2"
  type: "Convolution"
  bottom: "norm1"
  top: "conv2"
  param {
    lr_mult: 1
  }
  param {
    lr_mult: 2
  }
  convolution_param {
    num_output: 32
    pad: 2
    kernel_size: 5
    stride: 1
    weight_filler {
      type: "gaussian"
      std: 0.01
    }
    bias_filler {
      type: "constant"
    }
  }
}
layer {
  name: "relu2"
  type: "ReLU"
  bottom: "conv2"
  top: "conv2"
}
layer {
  name: "pool2"
  type: "Pooling"
  bottom: "conv2"
  top: "pool2"
  pooling_param {
    pool: AVE
    kernel_size: 3
    stride: 2
  }
}
layer {
  name: "norm2"
  type: "LRN"
  bottom: "pool2"
  top: "norm2"
  lrn_param {
    local_size: 3
    alpha: 5e-05
    beta: 0.75
    norm_region: WITHIN_CHANNEL
  }
}
layer {
  name: "conv3"
  type: "Convolution"
  bottom: "norm2"
  top: "conv3"
  convolution_param {
    num_output: 64
    pad: 2
    kernel_size: 5
    stride: 1
    weight_filler {
      type: "gaussian"
      std: 0.01
    }
    bias_filler {
      type: "constant"
    }
  }
}
layer {
  name: "relu3"
  type: "ReLU"
  bottom: "conv3"
  top: "conv3"
}
layer {
  name: "pool3"
  type: "Pooling"
  bottom: "conv3"
  top: "pool3"
  pooling_param {
    pool: AVE
    kernel_size: 3
    stride: 2
  }
}
layer {
  name: "ip1"
  type: "InnerProduct"
  bottom: "pool3"
  top: "ip1"
  param {
    lr_mult: 1
    decay_mult: 250
  }
  param {
    lr_mult: 2
    decay_mult: 0
  }
  inner_product_param {
    num_output: 10
    weight_filler {
      type: "gaussian"
      std: 0.01
    }
    bias_filler {
      type: "constant"
    }
  }
}
layer {
  name: "accuracy"
  type: "Accuracy"
  bottom: "ip1"
  bottom: "label"
  top: "accuracy"
  include {
    phase: TEST
  }
}
layer {
  name: "loss"
  type: "SoftmaxWithLoss"
  bottom: "ip1"
  bottom: "label"
  top: "loss"
}
I0917 09:47:42.899458 19945 layer_factory.hpp:77] Creating layer svhn
I0917 09:47:42.899523 19945 db_lmdb.cpp:35] Opened lmdb ./examples/svhn/svhn_test_lmdb
I0917 09:47:42.899543 19945 net.cpp:86] Creating Layer svhn
I0917 09:47:42.899554 19945 net.cpp:382] svhn -> data
I0917 09:47:42.899569 19945 net.cpp:382] svhn -> label
I0917 09:47:42.899580 19945 data_transformer.cpp:25] Loading mean file from: ./examples/svhn/mean.binaryproto
I0917 09:47:42.899761 19945 data_layer.cpp:45] output data size: 100,3,32,32
I0917 09:47:42.907778 19945 net.cpp:124] Setting up svhn
I0917 09:47:42.907807 19945 net.cpp:131] Top shape: 100 3 32 32 (307200)
I0917 09:47:42.907815 19945 net.cpp:131] Top shape: 100 (100)
I0917 09:47:42.907819 19945 net.cpp:139] Memory required for data: 1229200
I0917 09:47:42.907827 19945 layer_factory.hpp:77] Creating layer label_svhn_1_split
I0917 09:47:42.907845 19945 net.cpp:86] Creating Layer label_svhn_1_split
I0917 09:47:42.907851 19945 net.cpp:408] label_svhn_1_split <- label
I0917 09:47:42.907860 19945 net.cpp:382] label_svhn_1_split -> label_svhn_1_split_0
I0917 09:47:42.907876 19945 net.cpp:382] label_svhn_1_split -> label_svhn_1_split_1
I0917 09:47:42.907960 19945 net.cpp:124] Setting up label_svhn_1_split
I0917 09:47:42.907971 19945 net.cpp:131] Top shape: 100 (100)
I0917 09:47:42.907977 19945 net.cpp:131] Top shape: 100 (100)
I0917 09:47:42.907982 19945 net.cpp:139] Memory required for data: 1230000
I0917 09:47:42.908002 19945 layer_factory.hpp:77] Creating layer conv1
I0917 09:47:42.908023 19945 net.cpp:86] Creating Layer conv1
I0917 09:47:42.908030 19945 net.cpp:408] conv1 <- data
I0917 09:47:42.908041 19945 net.cpp:382] conv1 -> conv1
I0917 09:47:42.912055 19945 net.cpp:124] Setting up conv1
I0917 09:47:42.912083 19945 net.cpp:131] Top shape: 100 32 32 32 (3276800)
I0917 09:47:42.912088 19945 net.cpp:139] Memory required for data: 14337200
I0917 09:47:42.912106 19945 layer_factory.hpp:77] Creating layer pool1
I0917 09:47:42.912117 19945 net.cpp:86] Creating Layer pool1
I0917 09:47:42.912123 19945 net.cpp:408] pool1 <- conv1
I0917 09:47:42.912133 19945 net.cpp:382] pool1 -> pool1
I0917 09:47:42.912197 19945 net.cpp:124] Setting up pool1
I0917 09:47:42.912209 19945 net.cpp:131] Top shape: 100 32 16 16 (819200)
I0917 09:47:42.912214 19945 net.cpp:139] Memory required for data: 17614000
I0917 09:47:42.912217 19945 layer_factory.hpp:77] Creating layer relu1
I0917 09:47:42.912228 19945 net.cpp:86] Creating Layer relu1
I0917 09:47:42.912235 19945 net.cpp:408] relu1 <- pool1
I0917 09:47:42.912245 19945 net.cpp:369] relu1 -> pool1 (in-place)
I0917 09:47:42.913990 19945 net.cpp:124] Setting up relu1
I0917 09:47:42.914012 19945 net.cpp:131] Top shape: 100 32 16 16 (819200)
I0917 09:47:42.914021 19945 net.cpp:139] Memory required for data: 20890800
I0917 09:47:42.914026 19945 layer_factory.hpp:77] Creating layer norm1
I0917 09:47:42.914041 19945 net.cpp:86] Creating Layer norm1
I0917 09:47:42.914047 19945 net.cpp:408] norm1 <- pool1
I0917 09:47:42.914057 19945 net.cpp:382] norm1 -> norm1
I0917 09:47:42.916242 19945 net.cpp:124] Setting up norm1
I0917 09:47:42.916265 19945 net.cpp:131] Top shape: 100 32 16 16 (819200)
I0917 09:47:42.916272 19945 net.cpp:139] Memory required for data: 24167600
I0917 09:47:42.916278 19945 layer_factory.hpp:77] Creating layer conv2
I0917 09:47:42.916302 19945 net.cpp:86] Creating Layer conv2
I0917 09:47:42.916312 19945 net.cpp:408] conv2 <- norm1
I0917 09:47:42.916327 19945 net.cpp:382] conv2 -> conv2
I0917 09:47:42.922518 19945 net.cpp:124] Setting up conv2
I0917 09:47:42.922541 19945 net.cpp:131] Top shape: 100 32 16 16 (819200)
I0917 09:47:42.922549 19945 net.cpp:139] Memory required for data: 27444400
I0917 09:47:42.922564 19945 layer_factory.hpp:77] Creating layer relu2
I0917 09:47:42.922576 19945 net.cpp:86] Creating Layer relu2
I0917 09:47:42.922583 19945 net.cpp:408] relu2 <- conv2
I0917 09:47:42.922596 19945 net.cpp:369] relu2 -> conv2 (in-place)
I0917 09:47:42.923880 19945 net.cpp:124] Setting up relu2
I0917 09:47:42.923898 19945 net.cpp:131] Top shape: 100 32 16 16 (819200)
I0917 09:47:42.923903 19945 net.cpp:139] Memory required for data: 30721200
I0917 09:47:42.923910 19945 layer_factory.hpp:77] Creating layer pool2
I0917 09:47:42.923923 19945 net.cpp:86] Creating Layer pool2
I0917 09:47:42.923930 19945 net.cpp:408] pool2 <- conv2
I0917 09:47:42.923938 19945 net.cpp:382] pool2 -> pool2
I0917 09:47:42.924600 19945 net.cpp:124] Setting up pool2
I0917 09:47:42.924616 19945 net.cpp:131] Top shape: 100 32 8 8 (204800)
I0917 09:47:42.924619 19945 net.cpp:139] Memory required for data: 31540400
I0917 09:47:42.924623 19945 layer_factory.hpp:77] Creating layer norm2
I0917 09:47:42.924633 19945 net.cpp:86] Creating Layer norm2
I0917 09:47:42.924636 19945 net.cpp:408] norm2 <- pool2
I0917 09:47:42.924643 19945 net.cpp:382] norm2 -> norm2
I0917 09:47:42.925460 19945 net.cpp:124] Setting up norm2
I0917 09:47:42.925480 19945 net.cpp:131] Top shape: 100 32 8 8 (204800)
I0917 09:47:42.925485 19945 net.cpp:139] Memory required for data: 32359600
I0917 09:47:42.925490 19945 layer_factory.hpp:77] Creating layer conv3
I0917 09:47:42.925508 19945 net.cpp:86] Creating Layer conv3
I0917 09:47:42.925515 19945 net.cpp:408] conv3 <- norm2
I0917 09:47:42.925526 19945 net.cpp:382] conv3 -> conv3
I0917 09:47:42.929957 19945 net.cpp:124] Setting up conv3
I0917 09:47:42.929991 19945 net.cpp:131] Top shape: 100 64 8 8 (409600)
I0917 09:47:42.929999 19945 net.cpp:139] Memory required for data: 33998000
I0917 09:47:42.930037 19945 layer_factory.hpp:77] Creating layer relu3
I0917 09:47:42.930052 19945 net.cpp:86] Creating Layer relu3
I0917 09:47:42.930058 19945 net.cpp:408] relu3 <- conv3
I0917 09:47:42.930068 19945 net.cpp:369] relu3 -> conv3 (in-place)
I0917 09:47:42.930932 19945 net.cpp:124] Setting up relu3
I0917 09:47:42.930948 19945 net.cpp:131] Top shape: 100 64 8 8 (409600)
I0917 09:47:42.930953 19945 net.cpp:139] Memory required for data: 35636400
I0917 09:47:42.930959 19945 layer_factory.hpp:77] Creating layer pool3
I0917 09:47:42.930968 19945 net.cpp:86] Creating Layer pool3
I0917 09:47:42.930975 19945 net.cpp:408] pool3 <- conv3
I0917 09:47:42.930985 19945 net.cpp:382] pool3 -> pool3
I0917 09:47:42.932427 19945 net.cpp:124] Setting up pool3
I0917 09:47:42.932446 19945 net.cpp:131] Top shape: 100 64 4 4 (102400)
I0917 09:47:42.932452 19945 net.cpp:139] Memory required for data: 36046000
I0917 09:47:42.932458 19945 layer_factory.hpp:77] Creating layer ip1
I0917 09:47:42.932473 19945 net.cpp:86] Creating Layer ip1
I0917 09:47:42.932482 19945 net.cpp:408] ip1 <- pool3
I0917 09:47:42.932493 19945 net.cpp:382] ip1 -> ip1
I0917 09:47:42.932817 19945 net.cpp:124] Setting up ip1
I0917 09:47:42.932831 19945 net.cpp:131] Top shape: 100 10 (1000)
I0917 09:47:42.932837 19945 net.cpp:139] Memory required for data: 36050000
I0917 09:47:42.932845 19945 layer_factory.hpp:77] Creating layer ip1_ip1_0_split
I0917 09:47:42.932853 19945 net.cpp:86] Creating Layer ip1_ip1_0_split
I0917 09:47:42.932859 19945 net.cpp:408] ip1_ip1_0_split <- ip1
I0917 09:47:42.932868 19945 net.cpp:382] ip1_ip1_0_split -> ip1_ip1_0_split_0
I0917 09:47:42.932878 19945 net.cpp:382] ip1_ip1_0_split -> ip1_ip1_0_split_1
I0917 09:47:42.932937 19945 net.cpp:124] Setting up ip1_ip1_0_split
I0917 09:47:42.932948 19945 net.cpp:131] Top shape: 100 10 (1000)
I0917 09:47:42.932955 19945 net.cpp:131] Top shape: 100 10 (1000)
I0917 09:47:42.932958 19945 net.cpp:139] Memory required for data: 36058000
I0917 09:47:42.932962 19945 layer_factory.hpp:77] Creating layer accuracy
I0917 09:47:42.932972 19945 net.cpp:86] Creating Layer accuracy
I0917 09:47:42.932978 19945 net.cpp:408] accuracy <- ip1_ip1_0_split_0
I0917 09:47:42.932986 19945 net.cpp:408] accuracy <- label_svhn_1_split_0
I0917 09:47:42.932994 19945 net.cpp:382] accuracy -> accuracy
…
