…
I0802 14:28:25.887290 12646 net.cpp:294] The NetState phase (0) differed from the phase (1) specified by a rule in layer svhn
I0802 14:28:25.887302 12646 net.cpp:294] The NetState phase (0) differed from the phase (1) specified by a rule in layer accuracy
I0802 14:28:25.887418 12646 net.cpp:51] Initializing net from parameters: 
name: "SVHN_full"
state {
  phase: TRAIN
  level: 0
  stage: ""
}
layer {
  name: "svhn"
  type: "Data"
  top: "data"
  top: "label"
  include {
    phase: TRAIN
  }
  transform_param {
    mean_file: "./examples/svhn/mean.binaryproto"
  }
  data_param {
    source: "./examples/svhn/svhn_train_lmdb"
    batch_size: 50
    backend: LMDB
  }
}
layer {
  name: "conv1"
  type: "Convolution"
  bottom: "data"
  top: "conv1"
  param {
    lr_mult: 1
  }
  param {
    lr_mult: 2
  }
  convolution_param {
    num_output: 32
    pad: 2
    kernel_size: 5
    stride: 1
    weight_filler {
      type: "gaussian"
      std: 0.0001
    }
    bias_filler {
      type: "constant"
    }
  }
}
layer {
  name: "pool1"
  type: "Pooling"
  bottom: "conv1"
  top: "pool1"
  pooling_param {
    pool: MAX
    kernel_size: 3
    stride: 2
  }
}
layer {
  name: "relu1"
  type: "ReLU"
  bottom: "pool1"
  top: "pool1"
}
layer {
  name: "norm1"
  type: "LRN"
  bottom: "pool1"
  top: "norm1"
  lrn_param {
    local_size: 3
    alpha: 5e-05
    beta: 0.75
    norm_region: WITHIN_CHANNEL
  }
}
layer {
  name: "conv2"
  type: "Convolution"
  bottom: "norm1"
  top: "conv2"
  param {
    lr_mult: 1
  }
  param {
    lr_mult: 2
  }
  convolution_param {
    num_output: 32
    pad: 2
    kernel_size: 5
    stride: 1
    weight_filler {
      type: "gaussian"
      std: 0.01
    }
    bias_filler {
      type: "constant"
    }
  }
}
layer {
  name: "relu2"
  type: "ReLU"
  bottom: "conv2"
  top: "conv2"
}
layer {
  name: "pool2"
  type: "Pooling"
  bottom: "conv2"
  top: "pool2"
  pooling_param {
    pool: AVE
    kernel_size: 3
    stride: 2
  }
}
layer {
  name: "norm2"
  type: "LRN"
  bottom: "pool2"
  top: "norm2"
  lrn_param {
    local_size: 3
    alpha: 5e-05
    beta: 0.75
    norm_region: WITHIN_CHANNEL
  }
}
layer {
  name: "conv3"
  type: "Convolution"
  bottom: "norm2"
  top: "conv3"
  convolution_param {
    num_output: 64
    pad: 2
    kernel_size: 5
    stride: 1
    weight_filler {
      type: "gaussian"
      std: 0.01
    }
    bias_filler {
      type: "constant"
    }
  }
}
layer {
  name: "relu3"
  type: "ReLU"
  bottom: "conv3"
  top: "conv3"
}
layer {
  name: "pool3"
  type: "Pooling"
  bottom: "conv3"
  top: "pool3"
  pooling_param {
    pool: AVE
    kernel_size: 3
    stride: 2
  }
}
layer {
  name: "ip1"
  type: "InnerProduct"
  bottom: "pool3"
  top: "ip1"
  param {
    lr_mult: 1
    decay_mult: 250
  }
  param {
    lr_mult: 2
    decay_mult: 0
  }
  inner_product_param {
    num_output: 10
    weight_filler {
      type: "gaussian"
      std: 0.01
    }
    bias_filler {
      type: "constant"
    }
  }
}
layer {
  name: "loss"
  type: "SoftmaxWithLoss"
  bottom: "ip1"
  bottom: "label"
  top: "loss"
}
I0802 14:28:25.887482 12646 layer_factory.hpp:77] Creating layer svhn
I0802 14:28:25.887565 12646 db_lmdb.cpp:35] Opened lmdb ./examples/svhn/svhn_train_lmdb
I0802 14:28:25.887588 12646 net.cpp:84] Creating Layer svhn
I0802 14:28:25.887594 12646 net.cpp:380] svhn -> data
I0802 14:28:25.887612 12646 net.cpp:380] svhn -> label
I0802 14:28:25.887625 12646 data_transformer.cpp:25] Loading mean file from: ./examples/svhn/mean.binaryproto
I0802 14:28:25.888758 12646 data_layer.cpp:45] output data size: 50,3,32,32
I0802 14:28:25.892208 12646 net.cpp:122] Setting up svhn
I0802 14:28:25.892230 12646 net.cpp:129] Top shape: 50 3 32 32 (153600)
I0802 14:28:25.892235 12646 net.cpp:129] Top shape: 50 (50)
I0802 14:28:25.892237 12646 net.cpp:137] Memory required for data: 614600
I0802 14:28:25.892244 12646 layer_factory.hpp:77] Creating layer conv1
I0802 14:28:25.892264 12646 net.cpp:84] Creating Layer conv1
I0802 14:28:25.892271 12646 net.cpp:406] conv1 <- data
I0802 14:28:25.892284 12646 net.cpp:380] conv1 -> conv1
I0802 14:28:26.381613 12646 net.cpp:122] Setting up conv1
I0802 14:28:26.381637 12646 net.cpp:129] Top shape: 50 32 32 32 (1638400)
I0802 14:28:26.381642 12646 net.cpp:137] Memory required for data: 7168200
I0802 14:28:26.381660 12646 layer_factory.hpp:77] Creating layer pool1
I0802 14:28:26.381672 12646 net.cpp:84] Creating Layer pool1
I0802 14:28:26.381676 12646 net.cpp:406] pool1 <- conv1
I0802 14:28:26.381685 12646 net.cpp:380] pool1 -> pool1
I0802 14:28:26.381738 12646 net.cpp:122] Setting up pool1
I0802 14:28:26.381747 12646 net.cpp:129] Top shape: 50 32 16 16 (409600)
I0802 14:28:26.381749 12646 net.cpp:137] Memory required for data: 8806600
I0802 14:28:26.381753 12646 layer_factory.hpp:77] Creating layer relu1
I0802 14:28:26.381758 12646 net.cpp:84] Creating Layer relu1
I0802 14:28:26.381762 12646 net.cpp:406] relu1 <- pool1
I0802 14:28:26.381767 12646 net.cpp:367] relu1 -> pool1 (in-place)
I0802 14:28:26.382359 12646 net.cpp:122] Setting up relu1
I0802 14:28:26.382369 12646 net.cpp:129] Top shape: 50 32 16 16 (409600)
I0802 14:28:26.382372 12646 net.cpp:137] Memory required for data: 10445000
I0802 14:28:26.382375 12646 layer_factory.hpp:77] Creating layer norm1
I0802 14:28:26.382387 12646 net.cpp:84] Creating Layer norm1
I0802 14:28:26.382390 12646 net.cpp:406] norm1 <- pool1
I0802 14:28:26.382397 12646 net.cpp:380] norm1 -> norm1
I0802 14:28:26.383769 12646 net.cpp:122] Setting up norm1
I0802 14:28:26.383783 12646 net.cpp:129] Top shape: 50 32 16 16 (409600)
I0802 14:28:26.383787 12646 net.cpp:137] Memory required for data: 12083400
I0802 14:28:26.383790 12646 layer_factory.hpp:77] Creating layer conv2
I0802 14:28:26.383801 12646 net.cpp:84] Creating Layer conv2
I0802 14:28:26.383806 12646 net.cpp:406] conv2 <- norm1
I0802 14:28:26.383813 12646 net.cpp:380] conv2 -> conv2
I0802 14:28:26.387516 12646 net.cpp:122] Setting up conv2
I0802 14:28:26.387531 12646 net.cpp:129] Top shape: 50 32 16 16 (409600)
I0802 14:28:26.387537 12646 net.cpp:137] Memory required for data: 13721800
I0802 14:28:26.387545 12646 layer_factory.hpp:77] Creating layer relu2
I0802 14:28:26.387552 12646 net.cpp:84] Creating Layer relu2
I0802 14:28:26.387554 12646 net.cpp:406] relu2 <- conv2
I0802 14:28:26.387562 12646 net.cpp:367] relu2 -> conv2 (in-place)
I0802 14:28:26.388377 12646 net.cpp:122] Setting up relu2
I0802 14:28:26.388389 12646 net.cpp:129] Top shape: 50 32 16 16 (409600)
I0802 14:28:26.388392 12646 net.cpp:137] Memory required for data: 15360200
I0802 14:28:26.388396 12646 layer_factory.hpp:77] Creating layer pool2
I0802 14:28:26.388402 12646 net.cpp:84] Creating Layer pool2
I0802 14:28:26.388406 12646 net.cpp:406] pool2 <- conv2
I0802 14:28:26.388412 12646 net.cpp:380] pool2 -> pool2
I0802 14:28:26.389021 12646 net.cpp:122] Setting up pool2
I0802 14:28:26.389032 12646 net.cpp:129] Top shape: 50 32 8 8 (102400)
I0802 14:28:26.389035 12646 net.cpp:137] Memory required for data: 15769800
I0802 14:28:26.389039 12646 layer_factory.hpp:77] Creating layer norm2
I0802 14:28:26.389047 12646 net.cpp:84] Creating Layer norm2
I0802 14:28:26.389050 12646 net.cpp:406] norm2 <- pool2
I0802 14:28:26.389057 12646 net.cpp:380] norm2 -> norm2
I0802 14:28:26.389961 12646 net.cpp:122] Setting up norm2
I0802 14:28:26.389973 12646 net.cpp:129] Top shape: 50 32 8 8 (102400)
I0802 14:28:26.389977 12646 net.cpp:137] Memory required for data: 16179400
I0802 14:28:26.389981 12646 layer_factory.hpp:77] Creating layer conv3
I0802 14:28:26.390004 12646 net.cpp:84] Creating Layer conv3
I0802 14:28:26.390008 12646 net.cpp:406] conv3 <- norm2
I0802 14:28:26.390015 12646 net.cpp:380] conv3 -> conv3
I0802 14:28:26.393193 12646 net.cpp:122] Setting up conv3
I0802 14:28:26.393213 12646 net.cpp:129] Top shape: 50 64 8 8 (204800)
I0802 14:28:26.393218 12646 net.cpp:137] Memory required for data: 16998600
I0802 14:28:26.393232 12646 layer_factory.hpp:77] Creating layer relu3
I0802 14:28:26.393244 12646 net.cpp:84] Creating Layer relu3
I0802 14:28:26.393249 12646 net.cpp:406] relu3 <- conv3
I0802 14:28:26.393257 12646 net.cpp:367] relu3 -> conv3 (in-place)
I0802 14:28:26.394095 12646 net.cpp:122] Setting up relu3
I0802 14:28:26.394110 12646 net.cpp:129] Top shape: 50 64 8 8 (204800)
I0802 14:28:26.394114 12646 net.cpp:137] Memory required for data: 17817800
I0802 14:28:26.394116 12646 layer_factory.hpp:77] Creating layer pool3
I0802 14:28:26.394124 12646 net.cpp:84] Creating Layer pool3
I0802 14:28:26.394129 12646 net.cpp:406] pool3 <- conv3
I0802 14:28:26.394134 12646 net.cpp:380] pool3 -> pool3
I0802 14:28:26.394716 12646 net.cpp:122] Setting up pool3
I0802 14:28:26.394726 12646 net.cpp:129] Top shape: 50 64 4 4 (51200)
I0802 14:28:26.394731 12646 net.cpp:137] Memory required for data: 18022600
I0802 14:28:26.394734 12646 layer_factory.hpp:77] Creating layer ip1
I0802 14:28:26.394742 12646 net.cpp:84] Creating Layer ip1
I0802 14:28:26.394745 12646 net.cpp:406] ip1 <- pool3
I0802 14:28:26.394752 12646 net.cpp:380] ip1 -> ip1
I0802 14:28:26.395496 12646 net.cpp:122] Setting up ip1
I0802 14:28:26.395511 12646 net.cpp:129] Top shape: 50 10 (500)
I0802 14:28:26.395514 12646 net.cpp:137] Memory required for data: 18024600
I0802 14:28:26.395522 12646 layer_factory.hpp:77] Creating layer loss
I0802 14:28:26.395529 12646 net.cpp:84] Creating Layer loss
I0802 14:28:26.395532 12646 net.cpp:406] loss <- ip1
I0802 14:28:26.395536 12646 net.cpp:406] loss <- label
I0802 14:28:26.395543 12646 net.cpp:380] loss -> loss
I0802 14:28:26.395555 12646 layer_factory.hpp:77] Creating layer loss
…
I0802 14:28:26.397780 12646 solver.cpp:190] Creating test net (#0) specified by net file: ./examples/svhn/svhn_full_train_test.prototxt
I0802 14:28:26.397810 12646 net.cpp:294] The NetState phase (1) differed from the phase (0) specified by a rule in layer svhn
I0802 14:28:26.397915 12646 net.cpp:51] Initializing net from parameters: 
name: "SVHN_full"
state {
  phase: TEST
}
layer {
  name: "svhn"
  type: "Data"
  top: "data"
  top: "label"
  include {
    phase: TEST
  }
  transform_param {
    mean_file: "./examples/svhn/mean.binaryproto"
  }
  data_param {
    source: "./examples/svhn/svhn_test_lmdb"
    batch_size: 100
    backend: LMDB
  }
}
layer {
  name: "conv1"
  type: "Convolution"
  bottom: "data"
  top: "conv1"
  param {
    lr_mult: 1
  }
  param {
    lr_mult: 2
  }
  convolution_param {
    num_output: 32
    pad: 2
    kernel_size: 5
    stride: 1
    weight_filler {
      type: "gaussian"
      std: 0.0001
    }
    bias_filler {
      type: "constant"
    }
  }
}
layer {
  name: "pool1"
  type: "Pooling"
  bottom: "conv1"
  top: "pool1"
  pooling_param {
    pool: MAX
    kernel_size: 3
    stride: 2
  }
}
layer {
  name: "relu1"
  type: "ReLU"
  bottom: "pool1"
  top: "pool1"
}
layer {
  name: "norm1"
  type: "LRN"
  bottom: "pool1"
  top: "norm1"
  lrn_param {
    local_size: 3
    alpha: 5e-05
    beta: 0.75
    norm_region: WITHIN_CHANNEL
  }
}
layer {
  name: "conv2"
  type: "Convolution"
  bottom: "norm1"
  top: "conv2"
  param {
    lr_mult: 1
  }
  param {
    lr_mult: 2
  }
  convolution_param {
    num_output: 32
    pad: 2
    kernel_size: 5
    stride: 1
    weight_filler {
      type: "gaussian"
      std: 0.01
    }
    bias_filler {
      type: "constant"
    }
  }
}
layer {
  name: "relu2"
  type: "ReLU"
  bottom: "conv2"
  top: "conv2"
}
layer {
  name: "pool2"
  type: "Pooling"
  bottom: "conv2"
  top: "pool2"
  pooling_param {
    pool: AVE
    kernel_size: 3
    stride: 2
  }
}
layer {
  name: "norm2"
  type: "LRN"
  bottom: "pool2"
  top: "norm2"
  lrn_param {
    local_size: 3
    alpha: 5e-05
    beta: 0.75
    norm_region: WITHIN_CHANNEL
  }
}
layer {
  name: "conv3"
  type: "Convolution"
  bottom: "norm2"
  top: "conv3"
  convolution_param {
    num_output: 64
    pad: 2
    kernel_size: 5
    stride: 1
    weight_filler {
      type: "gaussian"
      std: 0.01
    }
    bias_filler {
      type: "constant"
    }
  }
}
layer {
  name: "relu3"
  type: "ReLU"
  bottom: "conv3"
  top: "conv3"
}
layer {
  name: "pool3"
  type: "Pooling"
  bottom: "conv3"
  top: "pool3"
  pooling_param {
    pool: AVE
    kernel_size: 3
    stride: 2
  }
}
layer {
  name: "ip1"
  type: "InnerProduct"
  bottom: "pool3"
  top: "ip1"
  param {
    lr_mult: 1
    decay_mult: 250
  }
  param {
    lr_mult: 2
    decay_mult: 0
  }
  inner_product_param {
    num_output: 10
    weight_filler {
      type: "gaussian"
      std: 0.01
    }
    bias_filler {
      type: "constant"
    }
  }
}
layer {
  name: "accuracy"
  type: "Accuracy"
  bottom: "ip1"
  bottom: "label"
  top: "accuracy"
  include {
    phase: TEST
  }
}
layer {
  name: "loss"
  type: "SoftmaxWithLoss"
  bottom: "ip1"
  bottom: "label"
  top: "loss"
}
I0802 14:28:26.397997 12646 layer_factory.hpp:77] Creating layer svhn
I0802 14:28:26.398051 12646 db_lmdb.cpp:35] Opened lmdb ./examples/svhn/svhn_test_lmdb
I0802 14:28:26.398066 12646 net.cpp:84] Creating Layer svhn
I0802 14:28:26.398072 12646 net.cpp:380] svhn -> data
I0802 14:28:26.398080 12646 net.cpp:380] svhn -> label
I0802 14:28:26.398087 12646 data_transformer.cpp:25] Loading mean file from: ./examples/svhn/mean.binaryproto
I0802 14:28:26.398254 12646 data_layer.cpp:45] output data size: 100,3,32,32
I0802 14:28:26.402601 12646 net.cpp:122] Setting up svhn
I0802 14:28:26.402624 12646 net.cpp:129] Top shape: 100 3 32 32 (307200)
I0802 14:28:26.402628 12646 net.cpp:129] Top shape: 100 (100)
I0802 14:28:26.402632 12646 net.cpp:137] Memory required for data: 1229200
I0802 14:28:26.402637 12646 layer_factory.hpp:77] Creating layer label_svhn_1_split
I0802 14:28:26.402647 12646 net.cpp:84] Creating Layer label_svhn_1_split
I0802 14:28:26.402650 12646 net.cpp:406] label_svhn_1_split <- label
I0802 14:28:26.402657 12646 net.cpp:380] label_svhn_1_split -> label_svhn_1_split_0
I0802 14:28:26.402667 12646 net.cpp:380] label_svhn_1_split -> label_svhn_1_split_1
I0802 14:28:26.402716 12646 net.cpp:122] Setting up label_svhn_1_split
I0802 14:28:26.402722 12646 net.cpp:129] Top shape: 100 (100)
I0802 14:28:26.402726 12646 net.cpp:129] Top shape: 100 (100)
I0802 14:28:26.402745 12646 net.cpp:137] Memory required for data: 1230000
I0802 14:28:26.402747 12646 layer_factory.hpp:77] Creating layer conv1
I0802 14:28:26.402757 12646 net.cpp:84] Creating Layer conv1
I0802 14:28:26.402762 12646 net.cpp:406] conv1 <- data
I0802 14:28:26.402768 12646 net.cpp:380] conv1 -> conv1
I0802 14:28:26.406219 12646 net.cpp:122] Setting up conv1
I0802 14:28:26.406237 12646 net.cpp:129] Top shape: 100 32 32 32 (3276800)
I0802 14:28:26.406241 12646 net.cpp:137] Memory required for data: 14337200
I0802 14:28:26.406253 12646 layer_factory.hpp:77] Creating layer pool1
I0802 14:28:26.406261 12646 net.cpp:84] Creating Layer pool1
I0802 14:28:26.406265 12646 net.cpp:406] pool1 <- conv1
I0802 14:28:26.406270 12646 net.cpp:380] pool1 -> pool1
I0802 14:28:26.406316 12646 net.cpp:122] Setting up pool1
I0802 14:28:26.406322 12646 net.cpp:129] Top shape: 100 32 16 16 (819200)
I0802 14:28:26.406324 12646 net.cpp:137] Memory required for data: 17614000
I0802 14:28:26.406327 12646 layer_factory.hpp:77] Creating layer relu1
I0802 14:28:26.406334 12646 net.cpp:84] Creating Layer relu1
I0802 14:28:26.406337 12646 net.cpp:406] relu1 <- pool1
I0802 14:28:26.406342 12646 net.cpp:367] relu1 -> pool1 (in-place)
I0802 14:28:26.407157 12646 net.cpp:122] Setting up relu1
I0802 14:28:26.407171 12646 net.cpp:129] Top shape: 100 32 16 16 (819200)
I0802 14:28:26.407173 12646 net.cpp:137] Memory required for data: 20890800
I0802 14:28:26.407177 12646 layer_factory.hpp:77] Creating layer norm1
I0802 14:28:26.407186 12646 net.cpp:84] Creating Layer norm1
I0802 14:28:26.407189 12646 net.cpp:406] norm1 <- pool1
I0802 14:28:26.407194 12646 net.cpp:380] norm1 -> norm1
I0802 14:28:26.408522 12646 net.cpp:122] Setting up norm1
I0802 14:28:26.408535 12646 net.cpp:129] Top shape: 100 32 16 16 (819200)
I0802 14:28:26.408540 12646 net.cpp:137] Memory required for data: 24167600
I0802 14:28:26.408542 12646 layer_factory.hpp:77] Creating layer conv2
I0802 14:28:26.408555 12646 net.cpp:84] Creating Layer conv2
I0802 14:28:26.408560 12646 net.cpp:406] conv2 <- norm1
I0802 14:28:26.408568 12646 net.cpp:380] conv2 -> conv2
I0802 14:28:26.412108 12646 net.cpp:122] Setting up conv2
I0802 14:28:26.412130 12646 net.cpp:129] Top shape: 100 32 16 16 (819200)
I0802 14:28:26.412134 12646 net.cpp:137] Memory required for data: 27444400
I0802 14:28:26.412145 12646 layer_factory.hpp:77] Creating layer relu2
I0802 14:28:26.412153 12646 net.cpp:84] Creating Layer relu2
I0802 14:28:26.412158 12646 net.cpp:406] relu2 <- conv2
I0802 14:28:26.412164 12646 net.cpp:367] relu2 -> conv2 (in-place)
I0802 14:28:26.414189 12646 net.cpp:122] Setting up relu2
I0802 14:28:26.414207 12646 net.cpp:129] Top shape: 100 32 16 16 (819200)
I0802 14:28:26.414211 12646 net.cpp:137] Memory required for data: 30721200
I0802 14:28:26.414214 12646 layer_factory.hpp:77] Creating layer pool2
I0802 14:28:26.414224 12646 net.cpp:84] Creating Layer pool2
I0802 14:28:26.414227 12646 net.cpp:406] pool2 <- conv2
I0802 14:28:26.414235 12646 net.cpp:380] pool2 -> pool2
I0802 14:28:26.415104 12646 net.cpp:122] Setting up pool2
I0802 14:28:26.415117 12646 net.cpp:129] Top shape: 100 32 8 8 (204800)
I0802 14:28:26.415120 12646 net.cpp:137] Memory required for data: 31540400
I0802 14:28:26.415123 12646 layer_factory.hpp:77] Creating layer norm2
I0802 14:28:26.415132 12646 net.cpp:84] Creating Layer norm2
I0802 14:28:26.415135 12646 net.cpp:406] norm2 <- pool2
I0802 14:28:26.415140 12646 net.cpp:380] norm2 -> norm2
I0802 14:28:26.416473 12646 net.cpp:122] Setting up norm2
I0802 14:28:26.416486 12646 net.cpp:129] Top shape: 100 32 8 8 (204800)
I0802 14:28:26.416489 12646 net.cpp:137] Memory required for data: 32359600
I0802 14:28:26.416492 12646 layer_factory.hpp:77] Creating layer conv3
I0802 14:28:26.416504 12646 net.cpp:84] Creating Layer conv3
I0802 14:28:26.416507 12646 net.cpp:406] conv3 <- norm2
I0802 14:28:26.416514 12646 net.cpp:380] conv3 -> conv3
I0802 14:28:26.419750 12646 net.cpp:122] Setting up conv3
I0802 14:28:26.419764 12646 net.cpp:129] Top shape: 100 64 8 8 (409600)
I0802 14:28:26.419780 12646 net.cpp:137] Memory required for data: 33998000
I0802 14:28:26.419792 12646 layer_factory.hpp:77] Creating layer relu3
I0802 14:28:26.419798 12646 net.cpp:84] Creating Layer relu3
I0802 14:28:26.419802 12646 net.cpp:406] relu3 <- conv3
I0802 14:28:26.419807 12646 net.cpp:367] relu3 -> conv3 (in-place)
I0802 14:28:26.420620 12646 net.cpp:122] Setting up relu3
I0802 14:28:26.420634 12646 net.cpp:129] Top shape: 100 64 8 8 (409600)
I0802 14:28:26.420637 12646 net.cpp:137] Memory required for data: 35636400
I0802 14:28:26.420646 12646 layer_factory.hpp:77] Creating layer pool3
I0802 14:28:26.420655 12646 net.cpp:84] Creating Layer pool3
I0802 14:28:26.420658 12646 net.cpp:406] pool3 <- conv3
I0802 14:28:26.420663 12646 net.cpp:380] pool3 -> pool3
I0802 14:28:26.421494 12646 net.cpp:122] Setting up pool3
I0802 14:28:26.421505 12646 net.cpp:129] Top shape: 100 64 4 4 (102400)
I0802 14:28:26.421509 12646 net.cpp:137] Memory required for data: 36046000
I0802 14:28:26.421512 12646 layer_factory.hpp:77] Creating layer ip1
I0802 14:28:26.421519 12646 net.cpp:84] Creating Layer ip1
I0802 14:28:26.421522 12646 net.cpp:406] ip1 <- pool3
I0802 14:28:26.421530 12646 net.cpp:380] ip1 -> ip1
I0802 14:28:26.421748 12646 net.cpp:122] Setting up ip1
I0802 14:28:26.421756 12646 net.cpp:129] Top shape: 100 10 (1000)
I0802 14:28:26.421758 12646 net.cpp:137] Memory required for data: 36050000
I0802 14:28:26.421766 12646 layer_factory.hpp:77] Creating layer ip1_ip1_0_split
I0802 14:28:26.421771 12646 net.cpp:84] Creating Layer ip1_ip1_0_split
I0802 14:28:26.421773 12646 net.cpp:406] ip1_ip1_0_split <- ip1
I0802 14:28:26.421779 12646 net.cpp:380] ip1_ip1_0_split -> ip1_ip1_0_split_0
I0802 14:28:26.421787 12646 net.cpp:380] ip1_ip1_0_split -> ip1_ip1_0_split_1
I0802 14:28:26.421828 12646 net.cpp:122] Setting up ip1_ip1_0_split
I0802 14:28:26.421836 12646 net.cpp:129] Top shape: 100 10 (1000)
I0802 14:28:26.421839 12646 net.cpp:129] Top shape: 100 10 (1000)
I0802 14:28:26.421844 12646 net.cpp:137] Memory required for data: 36058000
I0802 14:28:26.421845 12646 layer_factory.hpp:77] Creating layer accuracy
I0802 14:28:26.421851 12646 net.cpp:84] Creating Layer accuracy
I0802 14:28:26.421854 12646 net.cpp:406] accuracy <- ip1_ip1_0_split_0
I0802 14:28:26.421859 12646 net.cpp:406] accuracy <- label_svhn_1_split_0
I0802 14:28:26.421865 12646 net.cpp:380] accuracy -> accuracy
…
